models/lstm_model.pth (torch, 206133 bytes, 9 tensors)

lstm.weight_ih_l0 f4 [256, 1]
00000000: 755d 9f3d 3c05 cbbc 5b8b 0abd 33e3 c53d
00000010: f956 353d 0edd b1bd e978 99bd ea46 21be
00000020: ca48 ac3e e097 39bd b9f2 5ebd c17a dfbd
00000030: 74cd 833d 87d8 0ebd f474 a83d bf72 60bd
00000040: a82c d73e ae6f 40be b93e e4bd 62b5 9c3b
00000050: 8eef b13d 3aaf 563e 047e b4bd 5539 e9bd
00000060: a8ea cfbd ef1b 583d afec 24be 8de2 113d
00000070: 6b46 71bd 7402 2fbe 8385 f5bd 9c14 a2bd
00000080: 11b6 283d 7884 c73d 0482 2fbd 5717 49bd
00000090: 2400 2cbe 1ca9 9b3d 7d39 6abd f198 0c3e
000000a0: 9cf2 0abd 81e9 123e a71f 0b3d c100 4dbd
000000b0: 2fb3 a33c dac7 b13d 3e1f ecbd 40bc 22be
000000c0: c39e 4fbe 0700 dcbb 1bba 50bd 31e3 95bd
000000d0: c840 75bd 271c 35bd 7baf 2bbe 99c7 073d
000000e0: bb3f 953d 4398 c4bd 160d 9d3d 754f 6dbe
000000f0: 4a0a 2dbd 1f62 2f3c e90d fdbd 1d98 c8bd
00000100: 1848 0fbe 1284 833d 82ab 383d 8413 6b3c
00000110: c31e c13d e338 b1bd bdaa a5bd c2cd 20bd
00000120: 59bb 41bd 7718 3f3d b02c 1f3e 7a95 00be
00000130: f77b 06be 5096 2abe 7143 f7bd 75be dabd
00000140: 31ff b8be c473 b4bd e855 ad3d 7208 a0bc
00000150: 8347 22be 3d6e b1be 2375 0dbc 5c5d db3c
00000160: 45e4 07bd a05c f8bd 74eb 1dbe 724f 36bc
00000170: 9c60 f5bd 7d56 9abd 1a89 71bd 1149 163d
00000180: 189c 2fbd 8d63 7abd 90ba e4bc 1917 edbd
00000190: 54c9 813d ac87 6dbd 8b60 ab3c 1098 013d
000001a0: 9045 713d db56 b93a 3602 bcbb a993 00be
000001b0: 54f2 c63d 9aa5 03bd d974 21be 5001 7339
000001c0: 22fb d0bc e2f7 06be c13c ebbd 8f14 adbd
000001d0: 548b b5bd a530 b7bd 3c32 eabd 8b76 76bd
000001e0: 0a0c 4bbc b18a 423d a4fb 2cbd 33c5 c9bc
000001f0: 645b 0c3d 5692 73bd be55 df3d 11bd 22be
00000200: 8436 12bd fa68 b9bc 0e0b 9b3d ae90 84bc
00000210: f028 b43d 5daa 7c3d a244 f4bc 37b4 c1bc
00000220: 3ef9 51be 39ca 933d 787e 193d 06a4 703a
00000230: 67c2 cf3c de9c 0f3e ae6f 813d c4c4 55bd
00000240: 9935 2f3e 7776 843d b322 a2bb e328 16be
00000250: ab53 63bd 21a9 3dbe 1091 79bd cae1 f7bd
00000260: 82ba 16bc 0a5b 8fbd e45e ef3c ce2f 423d
00000270: 8699 0ebc 1f2f ac3d 2212 b43d dd0b 843d
00000280: 2068 4cbd d2bb f3bd a688 603d ded3 393d
00000290: e3b1 ac3c bc5b 95bc 5f33 a4bd 0cb6 013e
000002a0: 2267 9cbd a46a 033e a2af abbd 308d c83c
000002b0: 7246 c03d a6c7 c4bd 3608 fd3a c8f6 053e
000002c0: 8cac 343d 8977 993b 5294 eebc 63f6 793b
000002d0: b612 81bd 26ef 54bd eae3 96bd 89e2 9fbd
000002e0: 360b 413d 978d c6bd 76d6 8d3b f370 fdbd
000002f0: 1d8e 47bd b73b 04bd 3e15 38bd e475 0fbe
00000300: cec4 363d 32f4 0cbe 6b81 99bd 7874 9abd
00000310: d821 c9bd ca46 14be b3f9 febc efd4 0dbd
00000320: 8364 893e 966d 38bd f5a6 1f3c a379 7b3d
00000330: 2859 0bbe adf9 b8bd 9752 183d 6155 c7bb
00000340: 992a a43e 6a59 20be 0679 67bd db30 8c3c
00000350: fab4 3f3d 5c95 e63d 59ab 2bbb 4168 b1bd
00000360: 008b 20bd b8dc 04be 3d6b 943d 69f2 483c
00000370: 18af 27bd f6b2 95bd 6fc5 1fbe a250 9739
00000380: fe42 1b3c c4f5 f73d ac74 0dbd 3629 1bbe
00000390: 1ec5 5f3d 2b7d eabd e0bd 2cbd 9db8 3e3e
000003a0: be7c 50be 91b4 153e 7ec1 d1bd d7a6 ab3d
000003b0: dfb0 ccbc c8eb 9a3d b5bf a1bd cc63 29be
000003c0: fa8a 1bbe 3855 d1bd 42cc 423c 8c70 a0bd
000003d0: 9cc9 a9bd eda9 7d3d 2d55 11be e97d 10bd
000003e0: f03e 1ebe 5145 ed3c b093 64bd e3f8 6bbe
000003f0: a7a9 e7bd f2f4 0abe 7a8b 10be d90c 53bc
0.077814974 -0.02478277 -0.033824306 0.096624754 0.044272397 -0.08684741 -0.07493765 -0.15749708
0.33649284 -0.045310855 -0.054430697 -0.10912085 0.064356714 -0.034874465 0.08225432 -0.05479693
0.42026258 -0.18792602 -0.11144776 0.0047823647 0.086882696 0.20965281 -0.08813098 -0.11387888
-0.10152179 0.052761015 -0.16105913 0.035616446 -0.058905046 -0.1709078 -0.11988356 -0.07914087
0.041189257 0.09742063 -0.042848602 -0.049094524 -0.16796929 0.076006144 -0.05718373 0.13730218
-0.033922777 0.14346887 0.033965733 -0.050049547 0.019982902 0.08680697 -0.115293965 -0.15892124
-0.20275407 -0.0067138704 -0.050958734 -0.07318724 -0.059876233 -0.0442163 -0.16766159 0.033149336
0.07287546 -0.09599354 0.076685116 -0.23174842 -0.04224614 0.010704546 -0.12356169 -0.09794638
-0.13992345 0.06421675 0.045085438 0.014347915 0.094296955 -0.086534284 -0.08089206 -0.039258726
-0.04729781 0.04665419 0.1554439 -0.12557021 -0.13133226 -0.16658902 -0.1207341 -0.10680858
-0.36132196 -0.08811143 0.08463651 -0.019535277 -0.15847592 -0.34654418 -0.008633885 0.026777916
-0.03317668 -0.12127042 -0.1542185 -0.01112734 -0.119813174 -0.075360276 -0.05896864 0.036690775
-0.042873472 -0.061130095 -0.027920991 -0.11576671 0.063372284 -0.057990715 0.020920059 0.03163916
0.05890423 0.0014140265 -0.0057375683 -0.12556328 0.09714189 -0.03214035 -0.1576723 0.00023174775
-0.025510374 -0.13180497 -0.11486197 -0.08451187 -0.08864465 -0.08944825 -0.11435363 -0.060171645
-0.012393007 0.047495548 -0.04223217 -0.024630165 0.034266844 -0.05946573 0.10905026 -0.15892436
-0.03569652 -0.022633065 0.07570468 -0.01618227 0.08796871 0.06168591 -0.029817883 -0.023645503
-0.20505235 0.07216305 0.037474126 0.0009179715 0.025361253 0.14024684 0.06320129 -0.052189603
0.1711029 0.06467908 -0.004947984 -0.14664035 -0.055499714 -0.18521549 -0.060929358 -0.12103613
-0.00919974 -0.06999786 0.029220052 0.04740887 -0.008703595 0.08407425 0.08792521 0.06447575
-0.04990399 -0.11901058 0.054817818 0.045368068 0.021080917 -0.018232219 -0.08017611 0.12667102
-0.076368585 0.12833649 -0.08383109 0.024481386 0.093884364 -0.096083924 0.0019304815 0.13082421
0.044109866 0.004683439 -0.029123459 0.0038141243 -0.06302397 -0.051985882 -0.0736769 -0.0780688
0.047129832 -0.09694975 0.0043285443 -0.12375059 -0.048719514 -0.03228351 -0.044942133 -0.14009815
0.04462128 -0.13765028 -0.07495388 -0.07541746 -0.09820908 -0.14480129 -0.031124925 -0.034626897
0.26834497 -0.045026384 0.0097443955 0.0613953 -0.13608229 -0.09031997 0.03718814 -0.006083176
0.3206375 -0.15659109 -0.0565119 0.01711314 0.046803452 0.11258957 -0.002619466 -0.08662463
-0.03919506 -0.12974823 0.072470166 0.012264826 -0.040938467 -0.07309525 -0.15602659 0.0002886104
0.009476421 0.12107423 -0.034535095 -0.1515244 0.054631345 -0.11449655 -0.042173266 0.18625112
-0.20360085 0.14619662 -0.10241984 0.083814315 -0.024986682 0.07564503 -0.07897893 -0.16541976
-0.15189734 -0.10221332 0.011889519 -0.078339666 -0.08290407 0.061929632 -0.14192648 -0.035276327
-0.15453696 0.028963717 -0.05580491 -0.23044161 -0.113116555 -0.13570002 -0.14115706 -0.012881481

lstm.weight_hh_l0 f4 [256, 64]
00000000: 4256 e13c b38c a4bd 4caa 91bd 7d67 e43c
00000010: 27f5 8abd b9c8 703b 1cc8 cf3d 2235 76bd
00000020: 3a79 5ebd 2427 2dbd 9b11 843d 4404 d03d
00000030: d962 9e3d 2012 5b3c 0f2e 993d 6374 0fbd
00000040: 88eb 7bbd c31b e0bc e837 aa3d 5bcf f93d
00000050: dfd8 96bd a6fa b23b 4131 263d 7395 3a3d
00000060: aadd 8ebc 9cbc aabd 5aa0 d33d f169 f73d
00000070: 48ed 94bd 1861 ae3d 62b8 973d ce76 673c
00000080: d9a1 d43d 1ef0 57bc 5c2c e8bc b30c 03bd
00000090: 5144 373d d40a 623c 8559 9e3d 3230 3bbd
000000a0: 2ec8 94bd f6db 46bc 042d 5ebd b6e2 c63d
000000b0: b7b7 a63d 7a9c cf3c 77c1 713c 47ec cebc
000000c0: ccf1 8bbc 3378 80bd 8c93 153d 6773 ae3d
000000d0: 3f33 aa3b 64a9 e0bd 1e70 ddbd 696b ebbc
000000e0: 7c68 d2bd 64ea 9cbd 5781 96bd ff82 403d
000000f0: 8526 03bd a35e 9abd 827a a03d 6f61 8f3d
00000100: 3477 093e 4d86 03bc b8a8 bf3c f34a 373d
00000110: 7965 32bc 0638 80bd 6837 47bb 2400 bbbd
00000120: 7426 eabd 15ad 85bd e932 113e ad7e 1abd
00000130: ee89 973d 7090 7fbc e3b6 d33d d811 723b
00000140: 67b8 b7bd f746 143c 15f6 8a3d e2fd a63a
00000150: da12 a03d e8e9 8cbd c7ef fdbd 8d25 8d3d
00000160: 1015 1dbe 7afd d9bc 0e7a f23c 9e53 0fbd
00000170: a85f 923d 0b58 62bd f581 f7bc c723 b13d
00000180: 488a f2bd 3d80 3f3d 8421 48bd 80b0 87bd
00000190: 62d2 293c 4771 a9bd 16a7 8a3d 3dda d13d
000001a0: 118c c03d 73f7 193e 3a9f ad3d ca6c 6ebd
000001b0: 136b 003c 7f63 4abc 6879 cbbc b94b 5abd
000001c0: 232a 09be f3b8 c13c 8647 193e a07f 3abd
000001d0: 4c89 013e caa3 a53d 2062 ed3c 1495 a1bd
000001e0: 2976 a0bd af79 0fbd 134b e6bd 4806 603c
000001f0: 114c 0cbd 77c4 bcbd a6b5 a9bc 1761 14be
00000200: f4e9 98bd f3e4 0bbc fa72 55bd ce84 abbb
00000210: aa4d 773d 965b e03d 2c6b e83c e49d ca3d
00000220: 8f1e dfbd fd4c 483d ee5e 38bb 0b18 253d
00000230: 3d1f 9a3d 4a8c 123e a67f 033e 6f81 3c3d
00000240: 4772 b23d 87c6 f03d d2f8 d1bd c22f 013d
00000250: ac46 ffbd b52b 2bbe c735 f8bd a090 f0bd
00000260: 686d fa3d 8e75 743c 1b1d b4bd 6977 afbd
00000270: 1447 70bd 80c9 fc39 7be9 f3bd 6306 813d
00000280: 322b 9fbd 7179 94bd 8ccc 02bc ee94 563d
00000290: b01a 033e a017 e8bd a9a1 88bd 193f 7abc
000002a0: 9f53 433d 615d 40bd a36f 763d 27ce b1bd
000002b0: 7228 4c3c 33b3 a93c 9a32 3a3d 5ce2 173d
000002c0: d8f0 3e3c af84 b0bd dab4 383d 9e93 92bd
000002d0: dc2f 4a3d fdaa b93d b768 16be 4ed2 ac3d
000002e0: 9de7 0d3e c58e 26bd c5fd d1bc cfb9 0dbe
000002f0: abd9 dfbd 4d27 b6bd acb7 e7bd 7d48 9abd
00000300: 3bd0 ba3d 8fec a33d af41 14be 5554 883d
00000310: 048f babd a736 133d 09b0 9c3d baf0 793d
00000320: 020e 0fbe e56d 673d 2a3c c53d 4ea9 d83d
00000330: d9dc 943d 2677 593d de8c bbbd 5dd3 423c
00000340: 2ec3 353d 317a a6bd 6dfb 4b3d e910 383d
00000350: ee5b 633c 9085 49bd ea43 aabd 9d8b 413d
00000360: 5309 323d 17a5 bd3d 0266 a43d 8217 063d
00000370: 4018 abbd 12d5 00bd f411 4cbd e222 9f3d
00000380: 3676 8cbd ca87 8fbc 8942 0fbd 8b66 27bd
00000390: 3612 3e3b d753 b1bc c77f 5cbd ce6e f1bd
000003a0: 51af b9bd c936 35bd 9512 9fbd 0f4a eabd
000003b0: 2acb 88bd e7ed c03d 4ad2 71bd a34a 363b
000003c0: 468b a13d f538 9dbc fea5 bc3d b34e adbc
000003d0: f5cd 3f3d bfe5 a9bd 80e4 bfbd 2d1d 273d
000003e0: 6b2a 043e 177a 97bd fa5f 03bd 6bb5 963d
000003f0: dcae c83c 7aa1 23bd fa19 ee3b 8b4f d1bd
0.027506951 -0.08034649 -0.0711256 0.027881378 -0.0678504 0.0036740734 0.1014559 -0.060109265
-0.05431483 -0.042273656 0.064486705 0.101570636 0.077336974 0.013371021 0.07479488 -0.035023104
-0.061503917 -0.027356988 0.083114445 0.12197753 -0.07365584 0.0054620085 0.040574316 0.045552682
-0.017439682 -0.08336756 0.10333319 0.120807536 -0.0727182 0.08514613 0.07408215 0.014127446
0.103824325 -0.013179807 -0.028341465 -0.031994533 0.044742886 0.013796527 0.07731918 -0.04570026
-0.07264744 -0.012137404 -0.05424215 0.097112104 0.081405096 0.025343169 0.014755598 -0.02525915
-0.017083071 -0.06272926 0.036517665 0.08518105 0.0051940973 -0.10969809 -0.108124 -0.02873774
-0.10273835 -0.07661894 -0.07348888 0.046999928 -0.032019157 -0.07537582 0.078358665 0.07001006
0.13424379 -0.008027625 0.023395881 0.04474921 -0.010888451 -0.062606856 -0.0030398015 -0.09130886
-0.114331156 -0.065271534 0.14179577 -0.037718464 0.07399355 -0.015598401 0.10337617 0.0036936905
-0.08970719 0.009050122 0.06785218 0.0012740458 0.07816096 -0.068805516 -0.123992495 0.06891928
-0.15340066 -0.026610125 0.029599216 -0.034991853 0.07147151 -0.055259746 -0.030213336 0.08649402
-0.11842781 0.046753157 -0.048860088 -0.066254616 0.010365101 -0.08273559 0.0677015 0.10246704
0.094017155 0.150358 0.08477636 -0.058209218 0.0078380285 -0.012352823 -0.024838164 -0.05329487
-0.1339498 0.023647761 0.1496869 -0.04553187 0.12650031 0.08087881 0.028977454 -0.078897625
-0.07835037 -0.035028156 -0.11244788 0.013673373 -0.03425223 -0.0921716 -0.0207165 -0.14490162
-0.07466498 -0.0085384725 -0.052111603 -0.0052343374 0.0603768 0.10954969 0.028371416 0.098933965
-0.108945005 0.048901547 -0.0028132754 0.040306132 0.075254895 0.14311329 0.12841663 0.046021875
0.08713203 0.11756616 -0.10252537 0.031539686 -0.124646515 -0.16715892 -0.12119632 -0.11746335
0.12227899 0.014920605 -0.08794614 -0.085676976 -0.058661535 0.00048215315 -0.11909767 0.06300046
-0.07771911 -0.072497256 -0.007983338 0.052388124 0.12803149 -0.11332631 -0.06671459 -0.015273833
0.04768717 -0.046964053 0.06016506 -0.086818986 0.012460815 0.020715332 0.045458414 0.037081107
0.011654101 -0.086190574 0.04509435 -0.07157062 0.04936205 0.090658166 -0.14688383 0.0843855
0.13857885 -0.0406635 -0.025633702 -0.13840412 -0.10930189 -0.08894215 -0.113143295 -0.07533357
0.09121748 0.08004104 -0.14478181 0.0665671 -0.09109309 0.035940792 0.076507635 0.06102059
-0.13970187 0.056501288 0.09630616 0.10579167 0.07268686 0.053092144 -0.09157728 0.011891213
0.04437559 -0.08128775 0.049800325 0.044938 0.013876898 -0.04919964 -0.08313735 0.047252286
0.043465924 0.09260004 0.08027269 0.032737263 -0.08354235 -0.0314532 -0.04982181 0.07770325
-0.068584844 -0.017520804 -0.034975562 -0.040869277 0.0029002554 -0.021646423 -0.053832795 -0.117887124
-0.09066642 -0.0442417 -0.07767216 -0.11439907 -0.066793755 0.09420376 -0.059038438 0.0027815483
0.078878924 -0.019192198 0.09211348 -0.02115569 0.046827275 -0.08295774 -0.09369755 0.04079931
0.12906806 -0.07396334 -0.032073952 0.073588215 0.024497442 -0.039948918 0.0072662802 -0.1022025

lstm.bias_ih_l0 f4 [256]
00000000: f8cd db3d 9d99 09be 2ec4 5e3c e4f4 d639
00000010: e7c4 b6bd 774a 95bd b9c4 053d e6dc 3ebd
00000020: 8301 ac3d 019f ecbd 2ef8 313d da7a 5dbd
00000030: 8101 ba3c 0bf8 103d d5f0 edbc afc3 1fbc
00000040: 6460 f43c 47c8 31bd 3886 57bd c4e7 f73b
00000050: 3777 62bd bdb4 2b3d 2e69 44be c0e6 f2bd
00000060: de34 17bd 2fb6 9d3c 8cda edbd a97b 35be
00000070: 4673 e6bd 0deb 013e f463 ea3d 84bf e1bb
00000080: 9485 7a3d 2fdc 7ebd a52e 18be de21 793d
00000090: 17f8 3f3d 0ca9 753d ad6e 07be c4a0 f1bd
000000a0: e93d cabc b04e c2bd 7905 28be 9195 403d
000000b0: b7e8 043b 8ba5 a93d f09f a93d 8302 0dbe
000000c0: a2f4 0bbe ecf2 0d3d abbf 1abd 4d4b b7bb
000000d0: ce96 fa3c 292e 8fbd d02a 9fbd c7eb a73d
000000e0: 622a a83d 481c dcbd 0d6b 9dbd d429 babd
000000f0: 547a a23d a392 753d 4894 8fbd 8c37 8fbd
00000100: b4c1 a83d 9ed5 bcbd 8665 c43c 65bb 45bd
00000110: 8b92 b73d b328 e5bc 1ac7 14bd c0c7 703d
00000120: 0eed 49bc 7da8 2ebe d2a2 14bd a0df 28bd
00000130: 6e28 713a 7e65 873b 2a34 b9bd b5c3 c4bd
00000140: b1f6 c4bc c217 12be 6f55 8f3d 9a41 80bd
00000150: 96a7 43be 9dae eabd 05be 70bd dc9e 413d
00000160: 0581 8f3c 2472 90bc b8b4 e0bd 1264 9bbb
00000170: 3f32 9bbd 3a76 95bd 29d6 0b3d e8a7 23bb
00000180: b2fa 213c b12b 903a ec38 e1bd 327e 19bd
00000190: d68d c7bd 0625 12be b16b ea3b 04bf d6bd
000001a0: 45bc aebd 3abb ad3d ef02 203b 9593 f6bd
000001b0: 7334 3c3d d405 90bd c7bc 6cbd 3e3f 253b
000001c0: 779d 14be b990 d93d d252 ef3d a278 203c
000001d0: 2316 ddbc 2260 ebbc ae6e b9bd d96f 4a3d
000001e0: ad38 f83c 32a4 283d f17b 05be ec2b 02be
000001f0: 2fa6 1ebc 092b 0abe 10d2 f2bd 2a03 22be
00000200: 6e39 0abe 7af5 643d f93e 553d 2258 7e3d
00000210: 759b 2bbb 4d99 b73d a2b3 8dbd a419 653d
00000220: 0dd5 7a3c 71d6 c93d 9080 9ebd 3172 6a3c
00000230: 61a4 653d 9900 5a3c 7714 a1bd 2fcc 8cbd
00000240: 9bb4 843c 165f 543d 4780 b93c 2c2f 313d
00000250: a07b 4d3d 54fa 973c ca65 93bd 491c 593d
00000260: 83c1 053d 4ecd 97bb 0329 913c 9bba 413d
00000270: df09 79bd 48e6 8b3d dc77 a93d 9920 a83d
00000280: 195b c43d 96dc 90bd 4928 303d d04c 7cbb
00000290: 3c0f b6bd 9c5a c63d 4527 1cbc a7f5 9e3c
000002a0: af04 833d 9f55 82bd 26c2 863d 6cd1 ccbc
000002b0: 8dbf e23d 08da 9c3d 5b77 453d 3368 68bd
000002c0: dc06 13bd 5664 df3d 59e3 88bd 5a5d 093e
000002d0: 7181 773d 7fcc bc3d 3c0e b6bd 4bb1 033d
000002e0: cc9b 283d 04db 9fbd 1362 df3d eeb9 d83d
000002f0: b29b 18bd 5ac3 0b3d 2caa a43d 40c8 2f3b
00000300: e43b 183d 3389 e5bd 83ce 863d ca2d 79bd
00000310: 779d ee3d 0251 0dbe c7b6 7e3c fa59 d73b
00000320: bb22 5f3d 0c81 a3bd ab13 65bd c5c6 7c3d
00000330: 1290 913d 653c fcbd 57ce a6bc 0590 1e3c
00000340: b549 c53d dcac 6cbd 160d 433c d94e 81bd
00000350: 2663 3a3c 96db 313c 60a3 3ebd 60c3 4b3d
00000360: f3b1 95bd 7342 c43d acd8 ab3d 1b76 35be
00000370: 4662 783c 7a6d a13d ea51 e53d bb57 4b3d
00000380: 2c34 f43d 3b06 0bbe 87e0 a4bd 83d1 06be
00000390: 5ed1 1abe 57b4 893d b40f 34be 714f 663d
000003a0: acec 9dbd 36cc f0bd fc7b 1cbe 6390 abbd
000003b0: 462a 85bd 5da2 dcbc ef7e cf3c 102d c3bc
000003c0: 6c03 93bd 0284 f2bd 90b1 e13c 542a b1bd
000003d0: 0920 ca3c b6fc dc3d 3c95 43bd 66ac cd3d
000003e0: 308b dbbd 8f0f c0bd 6536 b0bd 55ae 0d3d
000003f0: 295b afbd 24d3 60bd 8328 cfbd 9fa3 fcbd
0.10732645 -0.13437505 0.013596578 0.00040999718 -0.08924275 -0.07289594 0.032658312 -0.046597384
0.08398726 -0.11553765 0.043449573 -0.05407224 0.022705795 0.035392802 -0.029045502 -0.009751244
0.029831119 -0.04340389 -0.052618235 0.0075654704 -0.055289473 0.041920412 -0.19180748 -0.11860418
-0.036915652 0.019251911 -0.1161395 -0.17722954 -0.112524554 0.12687321 0.11444846 -0.0068892855
0.061162546 -0.062221702 -0.14861543 0.060823314 0.046867456 0.05997567 -0.13225813 -0.11798242
-0.024687724 -0.09487665 -0.16408338 0.047017638 0.002028031 0.08283528 0.08282459 -0.1377049
-0.13667539 0.034655496 -0.037780445 -0.0055936933 0.030589487 -0.06991226 -0.07771838 0.08199268
0.08211209 -0.10747582 -0.07686434 -0.09090009 0.079334885 0.059954297 -0.07010704 -0.069930166
0.08240071 -0.09220432 0.023974191 -0.048274416 0.08963498 -0.027973508 -0.03632269 0.058784246
-0.012324585 -0.1705646 -0.03628809 -0.04122889 0.0009199445 0.004131972 -0.09043153 -0.09607641
-0.024043413 -0.14266875 0.06998717 -0.062625125 -0.19106898 -0.11459086 -0.058774967 0.04727064
0.017517576 -0.017632551 -0.10971969 -0.004742154 -0.07577943 -0.072979406 0.034139786 -0.0024971906
0.009886431 0.0010999349 -0.10997185 -0.037473865 -0.0974385 -0.14271936 0.007153951 -0.10485652
-0.08532003 0.08482976 0.002441581 -0.12039868 0.045948457 -0.070323616 -0.05779722 0.0025214697
-0.14513193 0.10623307 0.116857186 0.009794386 -0.026988095 -0.028732363 -0.090543136 0.049423072
0.030300463 0.041172214 -0.13035561 -0.12712067 -0.009683176 -0.13492979 -0.118564725 -0.1582152
-0.1349847 0.055898167 0.05206201 0.06209577 -0.002618519 0.08964787 -0.06919028 0.055932656
0.015309584 0.098553546 -0.07739365 0.014309452 0.056064967 0.013305807 -0.078652315 -0.068748824
0.0161994 0.051848494 0.022644175 0.043257877 0.050166726 0.018551983 -0.07197149 0.05300549
0.03265525 -0.0046326285 0.017719751 0.0472971 -0.06080043 0.06831032 0.082748145 0.082093425
0.09587688 -0.070733234 0.04300717 -0.0038497932 -0.088896245 0.09685251 -0.009530847 0.019404246
0.06397378 -0.06363987 0.065799996 -0.025002204 0.11071692 0.07658774 0.04820953 -0.056739997
-0.035895213 0.109078094 -0.06683988 0.13414517 0.06042618 0.09218692 -0.08889434 0.0321515
0.041164204 -0.07805446 0.10907378 0.10582338 -0.037257858 0.03412185 0.0804027 0.002682224
0.03716649 -0.11207809 0.06582358 -0.060834683 0.11651128 -0.13800433 0.015546507 0.0065720053
0.05447648 -0.07983598 -0.05592696 0.061713 0.07107557 -0.12316207 -0.020362062 0.009677892
0.09633199 -0.05778204 0.011904975 -0.06313867 0.011376178 0.010855576 -0.046542525 0.04974687
-0.07309332 0.09582987 0.08390936 -0.17720835 0.015160149 0.07882209 0.111972645 0.049644213
0.119240135 -0.13576595 -0.08050638 -0.1316586 -0.1511893 0.0672385 -0.17584115 0.056228105
-0.07711157 -0.117577 -0.15281671 -0.08377149 -0.06502204 -0.02693289 0.025329081 -0.023825198
-0.07178387 -0.11841585 0.027550489 -0.086506516 0.024673479 0.10790388 -0.047749743 0.10042648
-0.10719907 -0.093779676 -0.08604125 0.034590084 -0.08562309 -0.05488886 -0.10115149 -0.12335896

lstm.bias_hh_l0 f4 [256]
00000000: 1aec 83bd c3e3 d1bc a29e 8ebd 1edd 993d
00000010: ca93 0abd 9591 74bd 3e11 1abd 1d7e 943d
00000020: 6ad5 56bd 1a24 113c 7076 07be c984 b4bd
00000030: 109d ee3a 4345 453d 2adf 9ebd 1e0b 563c
00000040: e5ac 7f3d df13 1abd 8e68 b5bd ef3d c3bc
00000050: 6e86 4e3c abf4 a33c 7a35 80bd a414 efbd
00000060: b594 d3bc cf72 74bd 1377 a13d 4046 44bd
00000070: a52d a7bc 0f53 86bd 4f17 883c 39d8 27be
00000080: 956f 633c 4c72 0c3c d206 71bd d2b4 fcbd
00000090: e1e7 d9bd 6e59 f1bd 9c13 b6bc 2141 303d
000000a0: f5af 523d 1432 01be 9bc9 39be e78b 0fbe
000000b0: f4ff cfbc b319 90bd 18f7 dabd 19d2 2fbe
000000c0: e94a 09bd ef78 823c dc20 b03d eaeb 83bd
000000d0: 9051 9b3a ab01 c63c 4bbf 1a3c 9e6c 003b
000000e0: c47d fcbd e656 5bbd 38a5 d9bd cb08 c7bd
000000f0: e6d0 f4bd 77d3 063d ede0 693d aa55 82bc
00000100: 14f7 4c3b eb44 75bd d03a 32bd 33f6 e6bd
00000110: 207f 90bd 9362 3ebd 0067 37bd 7fd5 d9bd
00000120: 69f1 d1bd 39fc 52bd 23aa 0abd 14f6 a9bd
00000130: 887b 11bd 4471 c43d bb91 b2bd 9b9a 8e3d
00000140: 56fa 58bd bc22 be3d beb0 ef3d 7add 5b3d
00000150: d2dc 0fbe 1812 28be e1ff 1dbe 0ea4 d73d
00000160: f950 dc3b df36 d03d 7767 e7ba 3217 43bc
00000170: 87d2 1abe 3c14 483c 08d2 0d3e 2969 aabd
00000180: 5d3f 42bc 0650 f1bd c168 1dbe fe1a efbd
00000190: 6328 a6bd 9dea b2bc 75ab a13b e164 2bbe
000001a0: 99d1 0bbe b021 eabc 4f11 08bd da8a e53d
000001b0: acfe 993d d65d d1bd ecbb 273c 4198 0abe
000001c0: f36d e23c f4ff c9bd 2dd2 b93b 1f66 453d
000001d0: d596 d73c 62cb 763d 72f3 5ebe 13dc d2bd
000001e0: 5f44 b9ba f9be 133d 268d e83d a3f3 10be
000001f0: 09e1 c33d 4aa5 7dbc cfea 893c 1a32 f9bd
00000200: 9178 e5bd dfe8 1dbc 5422 b93d ab7e d0bd
00000210: ca47 7c3d 2aa3 2e3d 0446 89bd cb3f 273d
00000220: f122 383d 45e9 d5bd 4bbe 703b 6b41 b4bd
00000230: 9b3b 69bd 5052 a6bd 500f 423d f5f2 a3bd
00000240: c5e8 00bd e154 763c fe6f 91bd 6c61 313d
00000250: d93c 1cbd fe66 ca3c b784 c53d 8e6e 80bd
00000260: 9ee1 b5bb 77eb f9bd 16d6 90bc 9571 75bd
00000270: 22ab 463d 5576 a43d 8783 953d f452 7d3c
00000280: dc31 e93c 708d b13d 7595 11bd 61ce 8d3c
00000290: a4e9 3c3d fa19 bbbd dcc4 733d 8e42 b83b
000002a0: 2079 e8bc 739a 78bc 8bfc c3bb ec46 e03c
000002b0: 9ac4 51bd db7a 17bd 36ea 3abd 579f 0e3d
000002c0: 79e4 943c cc2f 2cbd 0882 cd3c 16ce 0d3c
000002d0: f0d7 07be 49d1 d03d a4bd aa3d d2ea a93c
000002e0: 29dd f1bd 884a c63d 7dec c13d dda3 a7bd
000002f0: 926d 3cbd 8725 843a 1fa7 37bd bfae 1d3b
00000300: a822 993c 8b11 953b 04ea d63d 50ab afbc
00000310: 6ecc d3bc 4cdc 723d 7274 3e3d fe0e 09bd
00000320: 5c93 c53d 94a9 9bbd 23d0 10be 244c 553d
00000330: 68c7 efbd 80ab 2f3d 359b 763d e567 8abd
00000340: 5c9d 93bd 6c03 b33d 6e30 fe3c e704 b6bd
00000350: 0cbb 2abe 8503 2dbd 80fd 1a3d b38c 91bc
00000360: 4082 303d c14e 95bc cdb3 c73c 3e54 333d
00000370: 26cf 29be 7897 4b3d 2b0c 10bc 6d8e dcbd
00000380: 207f 00be 05c7 afbd c808 7a3d c327 d6bd
00000390: 7c64 383c ec41 0fbe 8b31 adbd 3bf8 b5bd
000003a0: 238a 41bb 8acf d03d b566 a7bd 44c8 0ebe
000003b0: 9ff7 d6bd 2cfa 6bbc 9aae e63c a093 69bd
000003c0: ac73 f8bb ebcf 483d 0ba4 b13d 32c1 79bd
000003d0: 8896 9ebd 90e7 c63c 8067 47be 41c2 bf3d
000003e0: e0a9 ccbd bd5c b3bd 1dfc 3bbd 2487 623d
000003f0: 8442 1ebc 6a43 25bd 7300 cebd cd66 3abd
-0.06441517 -0.0256213 -0.069638506 0.07512878 -0.03383235 -0.05970915 -0.0376141 0.07250617
-0.05244962 0.008858705 -0.13228774 -0.08814389 0.0018204767 0.048161756 -0.07757409 0.013064174
0.062420744 -0.037616607 -0.08857833 -0.023833243 0.012605293 0.020014128 -0.062602 -0.11673859
-0.025827745 -0.059679803 0.0788404 -0.047918558 -0.020407507 -0.06558811 0.016612677 -0.16391076
0.013881584 0.008572172 -0.058844395 -0.12339176 -0.106399305 -0.117846355 -0.022226147 0.04303086
0.051437337 -0.1261676 -0.18143313 -0.14018212 -0.025390603 -0.07036152 -0.10691661 -0.1716999
-0.033518706 0.015926806 0.086000174 -0.064414814 0.0011849869 0.024170717 0.009445022 0.001959599
-0.123286754 -0.05354967 -0.10627216 -0.09718474 -0.11953907 0.032916512 0.05709927 -0.015909988
0.00312752 -0.05988018 -0.04351312 -0.112774275 -0.07055497 -0.046480726 -0.044775963 -0.10636424
-0.102511235 -0.05151007 -0.03385366 -0.08298889 -0.0355182 0.09591916 -0.08719202 0.069630824
-0.052973114 0.09283969 0.11703633 0.053678013 -0.1404908 -0.16413152 -0.15429641 0.10529338
0.00672352 0.10166716 -0.0017654736 -0.011907386 -0.15119372 0.0122118555 0.13849652 -0.08320839
-0.011855927 -0.117828414 -0.15371992 -0.1167507 -0.08113172 -0.021840388 0.0049337693 -0.16737701
-0.13654174 -0.028580517 -0.03321963 0.112081245 0.07519278 -0.10222976 0.010237675 -0.13534643
0.027640318 -0.09863272 0.005670807 0.048193093 0.02631704 0.060252555 -0.21772555 -0.10295882
-0.0014134756 0.036070798 0.11355047 -0.1415544 0.095644064 -0.0154813025 0.016835598 -0.12167759
-0.11204637 -0.00963804 0.09039751 -0.1018041 0.0615919 0.042636074 -0.067028075 0.040832322
0.044955198 -0.10444883 0.0036734517 -0.0880154 -0.05694161 -0.081211686 0.047377884 -0.08005325
-0.031471986 0.015034885 -0.07101439 0.0433058 -0.038143966 0.024707314 0.09644454 -0.06271087
-0.0055505773 -0.122031145 -0.01768021 -0.059922773 0.04850305 0.080303825 0.073004775 0.015461672
0.028466158 0.08669555 -0.035542924 0.017310323 0.046121255 -0.09135814 0.05951391 0.0056231683
-0.02837807 -0.015173542 -0.005981033 0.027377568 -0.051212884 -0.0369824 -0.045633517 0.034819927
0.01817535 -0.04203777 0.025086418 0.008655092 -0.13265967 0.10196168 0.08336952 0.020741854
-0.11809761 0.096821845 0.09468935 -0.08185551 -0.046002932 0.0010081985 -0.044837113 0.0024060456
0.018693283 0.0045492104 0.10493854 -0.021443993 -0.025854316 0.059292123 0.04649777 -0.033461563
0.09647247 -0.07600704 -0.14141898 0.052074566 -0.117079556 0.042888165 0.06020661 -0.067580976
-0.07207748 0.08740887 0.031028952 -0.08887654 -0.16672915 -0.042239685 0.037839413 -0.017767286
0.043092966 -0.01822603 0.024377728 0.04378151 -0.16582927 0.049705 -0.008791964 -0.10769353
-0.12548494 -0.08582882 0.06104353 -0.10456803 0.011254426 -0.13989991 -0.08456715 -0.08885237
-0.0029531799 0.10195835 -0.08173887 -0.13943583 -0.10496449 -0.014402907 0.028159428 -0.05702555
-0.0075821485 0.04902641 0.08673867 -0.06097526 -0.07743555 0.02428034 -0.19473076 0.09363223
-0.099933386 -0.08757923 -0.04589473 0.05530466 -0.009659413 -0.040347494 -0.100586794 -0.045508195

lstm.weight_ih_l1 f4 [256, 64]
00000000: 3e80 2cbd eda3 033d c77c f9bd effa 7dbc
00000010: 3777 d2bb cacc 043e 1090 f13c 7fbe 82bd
00000020: a099 a23d bd00 22bd 3c02 0f3e 9055 613d
00000030: 5edb 9e3d c477 193c 41ae 343d 9b9c bf3d
00000040: 9334 d7bd bf90 3ebd 8ada 413b d4c5 c2bb
00000050: 2d40 e3bd bfe1 123c d75b 2abe 7ce0 52bd
00000060: 8d15 f13d 6ee1 d63d 5f5a 0fbd 80db 2ebc
00000070: b413 a83d b325 bf3d 5134 e1bd 0d34 49bd
00000080: 6a07 23bd c27f 253e 287b b4bc 5732 d93b
00000090: 0869 c73d 653f 293c cf01 c6bc 246c 96bd
000000a0: 53ee f13b db9a 913d 210d 943d f758 e1bd
000000b0: 0997 d1bd 5e5c fd3d 0dbd c73a 1fe0 07bb
000000c0: 5da1 92bd 5cdf fe3c 244d d53d 81bb d93d
000000d0: 81dd b1bd 3f95 a03d ddb8 f6bc 95b6 f13d
000000e0: b24e 2abc 5b90 603c 0ed8 d4bd 5c8e ab3d
000000f0: 94bf a6bd a589 a7bd 7b1d a23d b7a2 b6bc
00000100: e196 e53d a316 1b3c 6d37 183d 3792 e93c
00000110: b778 ffbb b694 d03d 7723 f73c f58b 5c3c
00000120: ee9d d6bc a25e 5cbd f51b e13d 984c 8a3c
00000130: 5360 53bd 9c65 8a3d bce2 c3bc 16f6 773d
00000140: c61a 0dbe 33da 6dbd fe37 ad3d f397 a53d
00000150: 7558 fdbb ab3a 8bbd 03b6 7e3c 71da 8dbc
00000160: 9033 263c 8bdb b3bd 47f8 59bd 26d9 21bc
00000170: 0e5e 0cbd 9f10 773d fd63 973d 20fa d8bc
00000180: 341d d2bd 2079 85bc b4ef 513d 9e90 a83d
00000190: 45b4 e6bd 76ad 5fbd 068e d23d 22b1 04be
000001a0: 3d4e b4bd 3313 e2bd 2af6 6a3d 2c57 b4bd
000001b0: 1f8e 263d 528f dcbd cf8c e73d c2ff 2d3d
000001c0: 1bbb 0c3d 724a a5bd db7e 3f3d aca7 acbd
000001d0: 9c18 993d 0614 f2bd 44a9 a93d d168 f4bd
000001e0: 2839 92bc 20dd 543d 572c c73d f0c5 9d3d
000001f0: 4b56 afbd 3448 d0bd ec7d 9e3d a189 113d
00000200: bb15 c5bc 5254 a5bb 7ceb 06be cf4b fa3d
00000210: 326a 9ebd 42b7 11be c595 f83d 7ba3 d0bd
00000220: d03b 933a dfc9 8ebc 417f 353d 8395 b03d
00000230: 6ac1 a0bd 82d5 e63d 7b3c 073e 9a7f 833d
00000240: c16d cfbc 191f f8bd 48b6 bc3c 5c90 83bd
00000250: a4ba e63d 628d 883d dd19 d53d 7e2e 693d
00000260: 3c2e 443d bcce c6bc dc55 073e 2432 f0bc
00000270: 2ebe 1c3e 5b4a c7bd 882f a5bc 8229 b2bd
00000280: 80ac b5bd e0c4 54bd c4f6 0e3b f359 e5bd
00000290: 1219 85bb 1073 21be 6bbd b4bd acfa b93c
000002a0: d3e9 e43c bddc 2abd 1993 88bd 1e19 22be
000002b0: e97c a5bd acc0 5b3d 9104 a83d c4a7 cfbd
000002c0: 7a01 e7bc ef4f 7dbd 4571 813d a3d0 973b
000002d0: 6b88 173c 515e 19be 706f 4b3c 8d04 403d
000002e0: 4718 e33d d412 1f3c 42b0 0dbe c72e adbb
000002f0: fe83 edbc ca21 0cbd f9bb 8cbd 3c1a 19be
00000300: 7d87 9b3d f7ff e9bd b170 d6bd 5dcf c03d
00000310: 3638 6fbd c95a 8d3c e2d8 073e bd0c 21be
00000320: b91b 20be 3f57 22bd 4273 053d a36c 2a3e
00000330: 7855 0fbe 8efe 173e 19dc d03d d11b d03d
00000340: 32ad 1dbc f46b fabd 1fba 253e 6b3b acbd
00000350: 1a2f 143e 48ef dcbd e7be ed3b 180c 8937
00000360: 0ee5 0b3d b21c 243e de30 473e 1639 39bd
00000370: b154 e63d 2298 f7bd af19 b2bd 7102 08be
00000380: 3ce8 0639 1030 2fbd e0b0 193e 81c3 aabd
00000390: 76e6 d23c 1c9e 17be 9651 38bd 7ca8 cdbd
000003a0: 56f2 3b3d 7df4 e43d 4342 803d 2cbe f6bd
000003b0: 70b2 03be a0c0 d8bd 617d 213e 922e 00be
000003c0: d500 973d 74c0 213d 89ed 783d 197c c6bd
000003d0: cdf4 913d d368 04be 089e 40bd 158b 3bbe
000003e0: 72ab 3e3e 54ba 7e3b 9752 9ebc a265 00be
000003f0: e912 d53d 4411 8e3d 7699 bf3d 0057 adbd
-0.04211449 0.032138754 -0.121820025 -0.015501722 -0.006422903 0.12968746 0.02948764 -0.063839905
0.07939458 -0.039551485 0.13965696 0.05501324 0.07756685 0.009366933 0.044111494 0.09356042
-0.105080746 -0.04652476 0.0029579722 -0.005943993 -0.11096225 0.008964955 -0.16636597 -0.051483616
0.117716886 0.10492216 -0.034998294 -0.01067245 0.08206883 0.093333624 -0.10996307 -0.049121905
-0.039801992 0.16162017 -0.022031382 0.0066283154 0.0973683 0.010330056 -0.024170784 -0.07344845
0.007383147 0.071096145 0.07229067 -0.11003297 -0.10233886 0.12371133 0.0015238837 -0.0020732952
-0.07159684 0.031112365 0.10415104 0.10631467 -0.08684827 0.078409664 -0.030117447 0.11802403
-0.010394739 0.013706292 -0.10392772 0.08376762 -0.081420094 -0.081805505 0.07915779 -0.022294385
0.112104185 0.009465846 0.037162233 0.028512103 -0.0077963728 0.10184614 0.030168278 0.013461103
-0.026198354 -0.053801186 0.109916605 0.016882226 -0.051605534 0.06757662 -0.023911826 0.06053742
-0.13779745 -0.05806942 0.08457945 0.08085623 -0.007731492 -0.067982994 0.015546325 -0.017316075
0.010144129 -0.08782109 -0.05321529 -0.009878432 -0.034269385 0.060318585 0.07392118 -0.026486456
-0.10259476 -0.016293108 0.05125399 0.082307085 -0.112648524 -0.054608785 0.10280995 -0.12958196
-0.08803985 -0.11038818 0.057363667 -0.08805689 0.04066288 -0.10769524 0.11306154 0.042480238
0.034358125 -0.0807084 0.04675184 -0.08430418 0.07475397 -0.118202254 0.08284238 -0.11934055
-0.01784952 0.051968694 0.09725254 0.07703769 -0.08561381 -0.10170022 0.077388614 0.035531644
-0.024058213 -0.005045452 -0.13175768 0.122214906 -0.07735099 -0.14230064 0.12137941 -0.101874314
0.0011233035 -0.017430244 0.044310812 0.08622267 -0.07849391 0.11271192 0.13206665 0.064208224
-0.02532089 -0.121153064 0.023036137 -0.06424019 0.112660676 0.06667592 0.10405324 0.056929104
0.047895655 -0.0242685 0.13216347 -0.029320784 0.15306923 -0.09730979 -0.020164266 -0.08699323
-0.088707924 -0.051945567 0.0021814564 -0.11198797 -0.0040618265 -0.15766549 -0.08825191 0.022702537
0.027943527 -0.04171442 -0.06668682 -0.15829894 -0.08080465 0.053650543 0.08203996 -0.10139421
-0.028198946 -0.06184381 0.063204326 0.0046330257 0.009248833 -0.14977385 0.0124167055 0.04687934
0.11088615 0.009709079 -0.13836768 -0.0052851173 -0.028993603 -0.03421191 -0.068717904 -0.14951414
0.07594202 -0.114257745 -0.10470713 0.094145514 -0.058403216 0.017255204 0.13266328 -0.15727516
-0.15635575 -0.039633986 0.03258062 0.16643004 -0.13997447 0.14843199 0.1019823 0.101615556
-0.0096238125 -0.12227622 0.16184281 -0.084097706 0.14471093 -0.10787827 0.0072554233 1.6337304e-05
0.03415399 0.16026571 0.19452235 -0.045220457 0.11246622 -0.12089564 -0.08696305 -0.13282181
0.0001286575 -0.042770445 0.15008879 -0.08338071 0.025744658 -0.14806408 -0.04499968 -0.100419015
0.045885406 0.11179445 0.062626384 -0.12047991 -0.12861037 -0.10583615 0.15770485 -0.12517765
0.073732056 0.03949018 0.060773406 -0.096916385 0.0712677 -0.12930612 -0.04702571 -0.18314774
0.18620089 0.0038868384 -0.019326491 -0.1253877 0.104039975 0.06936887 0.09355442 -0.084638596

lstm.weight_hh_l1 f4 [256, 64]
00000000: d1eb 2c3d 3549 e2bd ff3d c8bd 974f 663d
00000010: d346 8abd b146 26bd 0b80 913d 599c 993d
00000020: 3369 1f3d 992c 27bd ce66 05bd 8ef7 cfbd
00000030: be67 fbbd 51a8 c8ba e86d 643c 2a53 0b3d
00000040: 1031 d33d 61ee aa3d 32f2 033d 1bf2 afbc
00000050: d1ca 3a3d 762a a63d c51e 18bd 6e1c 2dbe
00000060: 816a 8fbc 97ee 1a3e 8f7a 533c 2383 ccbd
00000070: d02f ba3d 194a 9cbb c60f 0c3d 4f6a febd
00000080: 8bd0 65bd 1313 adbc 03ac 67bd c219 84bd
00000090: 63e6 77bc d5ef 833c 36e6 aabd 5bc6 7f3d
000000a0: 6a79 e53c dc0b c4bd 749b b43d 6217 57bd
000000b0: 1d8a 0b3e 4ab8 333e 0a36 fabb 97b8 5dbd
000000c0: 5b66 e03d 5e0c 9dbd 2b8f 753d 5f14 64bc
000000d0: 0c7f 43bd 9e8d 03bc df41 003c ce8f 683d
000000e0: 4a59 8e3d e9aa a9bc f3a1 a1bd 00c3 f3bd
000000f0: 205a 7c3d 3591 173c 0ecb d93d 284e aabc
00000100: 1b32 d5bc c800 843d fbb7 a1bd 72d6 023e
00000110: fc6d 163e 15cc af3d 3d46 80bd 70fb a3bd
00000120: 4417 023e 1721 ea3d 4cad 5f3d 3c6a ecbd
00000130: 4612 823c f4fc e83d 1436 de3c dcb8 e03d
00000140: 028a 633d 5255 063e 2af7 533d 3ceb 01bd
00000150: 5496 b13d 649a 3fbd 43c6 45bd c441 a9bc
00000160: fe2e 5c3d 7138 ddba 23c8 62bc a610 e5bc
00000170: c2a4 0e3e 7735 b9bd a326 d53b 262f afbc
00000180: 5246 e9bd 797e c93c 69d3 5cbd b288 c03d
00000190: 979f 07be d7c2 f93c 3455 ffbd b7c3 a63b
000001a0: 33ee b83d 0609 24bd 0bd2 423d c4ed 373d
000001b0: d771 373d af96 22bd 5773 aa3d a259 363e
000001c0: 5128 933d 0ae1 043d fd7b 77bd f31d 58bd
000001d0: 1ea7 cdbb de32 84bd b2b9 813b d635 a83d
000001e0: c54e 443b 1ddb bebd 50eb 52bc d82e 9d3d
000001f0: 004c ba3d 2b4b ca3d 065b db3d 275a f63d
00000200: 373d 35bd c297 943c 7155 0f3e 6c22 953d
00000210: b093 80bd afe8 0ebe e48b d43d 31a3 febd
00000220: 1a38 4cbd e4f0 5e3d 5a80 10be ffcb 9c3d
00000230: 66b5 be3a fb9b 8d3d 473e 9fbd 5180 00bd
00000240: 0bc3 c33c 4ae2 adbd fba0 7d3c f898 873d
00000250: a496 03be 0854 a5bc 7498 25bd 4a6e 86bd
00000260: 5c73 8a3d 1f9b e3bd 4caa 01be 6b81 3bbe
00000270: 7c7a 18be 1555 33bd f6e2 1dbd cdc5 f43d
00000280: 9505 703c 139b 353d 48de 6d3d 46f1 e63d
00000290: 715d 22bd e6cb 03be fac1 88ba 8b9c ecbd
000002a0: 00af 3b3e ce77 3fbc 2e4c 27bb ef8d c8bc
000002b0: 8533 89bd a3b1 fa3b 5d43 ccbd 92e7 c13d
000002c0: 2236 afbc ba08 b63d 2e5c 38be 034c 953c
000002d0: 0d4b 353d 4ee3 ea3d a708 35be b42f 26be
000002e0: c84c 053d d094 9e3d 7336 643d ae11 133d
000002f0: 806a 83bc cd47 03be 5a04 1b3e b3a8 af3c
00000300: c2c6 0cbe cf98 ba3d 67c2 acbd ccf1 aabd
00000310: 5a54 033d dfb7 11be 17f9 3dbd 2a7f a93c
00000320: 0be3 9abd 33ce fa3d ccc4 0abd 4bd9 953d
00000330: 0f48 6bbc 394f 17be 3435 75bc 08d1 20be
00000340: d449 063d 33c6 1ebd b7f9 3f3d 2333 ccbc
00000350: cf37 a6bd 90a1 e43d 1ac0 fabd db70 8dbb
00000360: 04b7 9cbc f5b3 50bb d1f4 733c ce7b 46be
00000370: 97fd 0fbe 1482 b23d 9bc5 973c c193 dbbc
00000380: a84a c3bc 9b3b 313e 4ecd 133e b3d3 60bc
00000390: 1470 82bd f30b d7bd 898e 513d 7f0c 11be
000003a0: 3698 b2bc d2c0 0bbc af18 35bd 1534 05be
000003b0: 16bc 17be b924 c13b 115d 10be 8f26 803c
000003c0: d526 963c d698 003e 65db 133d 2460 f83d
000003d0: d460 033e 4b97 0a3e e0ae 03be 3fc0 01be
000003e0: 88d2 adbd 8395 1a3e c0f1 093d 4c38 d63d
000003f0: 2db7 1abd 30c2 02bc a8ce 1a3e 1b80 18be
0.04221708 -0.110491194 -0.0977745 0.056228247 -0.0675179 -0.04059476 0.071045004 0.07500524
0.038918685 -0.040814016 -0.032568745 -0.10154639 -0.122756466 -0.0015308951 0.013942219 0.03401486
0.10312092 0.083462484 0.032213397 -0.02147775 0.045603577 0.081135675 -0.03713872 -0.16905376
-0.01750684 0.15130077 0.012907638 -0.0998595 0.09091151 -0.0047695753 0.03419473 -0.124226205
-0.056107085 -0.02112726 -0.056560528 -0.064502254 -0.015130612 0.016105572 -0.083446905 0.062445026
0.028011996 -0.095725745 0.08818713 -0.052512534 0.13626905 0.1755077 -0.0076358365 -0.054131117
0.10957023 -0.076683745 0.05995099 -0.0139208725 -0.047728583 -0.00802937 0.007828205 0.056777768
0.06950624 -0.02071138 -0.078922175 -0.11902428 0.061609387 0.009250929 0.10634433 -0.02078922
-0.026024869 0.064454615 -0.078964196 0.12777117 0.14690393 0.085838474 -0.06263397 -0.08006942
0.12704188 0.11432093 0.05460863 -0.115437 0.015877854 0.11376372 0.027125396 0.10972759
0.055551536 0.13118485 0.051749386 -0.031718478 0.08671251 -0.046778098 -0.04828478 -0.020661242
0.053755753 -0.0016877783 -0.013841662 -0.02796204 0.13930038 -0.09043401 0.00650485 -0.021384787
-0.11390366 0.02459644 -0.053912554 0.094010726 -0.13244472 0.030488415 -0.12467423 0.005089249
0.09029808 -0.040047668 0.047563594 0.044904485 0.0447863 -0.039694484 0.083227806 0.1780763
0.07185424 0.032441176 -0.06042098 -0.052762937 -0.0062760254 -0.06455015 0.003958904 0.082133934
0.0029954177 -0.09319136 -0.012873486 0.0767495 0.09096527 0.098776184 0.10710721 0.12028914
-0.044247832 0.01813877 0.13997437 0.07281956 -0.06278169 -0.13955949 0.103782445 -0.1243347
-0.04985819 0.05442895 -0.14111462 0.07656097 0.001454991 0.069145165 -0.0777555 -0.031372372
0.023896715 -0.08490427 0.015480275 0.06620973 -0.12850434 -0.02018167 -0.040428594 -0.06564005
0.06760284 -0.111135714 -0.1266262 -0.18311088 -0.14890474 -0.043782312 -0.038546525 0.1195179
0.014649768 0.044337343 0.058073312 0.11276488 -0.039639894 -0.1287075 -0.0010433786 -0.11553296
0.18328476 -0.0116862785 -0.0025527584 -0.024481742 -0.0669928 0.0076505705 -0.09973786 0.09467997
-0.021388117 0.08888383 -0.18003914 0.018224722 0.044261027 0.11469136 -0.17679082 -0.16229135
0.032543927 0.077432275 0.05571599 0.035905533 -0.016041994 -0.12820359 0.15138379 0.021442747
-0.13747695 0.09111177 -0.08435517 -0.083469 0.032062866 -0.14230298 -0.04638013 0.02069052
-0.07562836 0.12246361 -0.033879086 0.07316836 -0.014360442 -0.14776315 -0.014966298 -0.15704739
0.03278525 -0.038763236 0.046869006 -0.024926728 -0.081161134 0.11163628 -0.12243672 -0.004316432
-0.019130237 -0.0031845544 0.014889912 -0.19383165 -0.1406158 0.08716217 0.018526843 -0.026803853
-0.02383931 0.17307894 0.14433786 -0.013722348 -0.063690335 -0.10500326 0.051161323 -0.14164923
-0.021801095 -0.008529859 -0.044212993 -0.13008149 -0.14817843 0.0058942703 -0.14098002 0.015643386
0.018329063 0.12558302 0.036097903 0.12127712 0.12829906 0.13534276 -0.12859678 -0.12670992
-0.08487421 0.15096097 0.033677816 0.104599565 -0.037772346 -0.007980868 0.15117896 -0.14892618

lstm.bias_ih_l1 f4 [256]
00000000: cc7e 83bc fc96 a5bd 38b6 9bbd 1a60 8b3d
00000010: 5c2b 10be 2e9a bcbd 1d09 5e3d 1fde 91bd
00000020: e8e3 ecbd 7fe4 0a3d ee95 c9bb 1194 2abb
00000030: 137e 8f3c aaf2 0e3d a603 06bd e2cd 9fbd
00000040: 1f12 9fbd da5d e8bd 0d65 03be ad6e 4bbd
00000050: d4db 523d 8f9e 06be ae67 983d c798 823c
00000060: 41ab 08bb 793c cabd 9253 563d ad08 503d
00000070: 515b 2abe 9bbb 34be 5e23 9b3c b865 c7bd
00000080: 84d3 123c 6223 883d 72ec 27bc 8ff4 283d
00000090: ccfc ad3d f0d2 9e3d 9979 e1bc 51f0 10be
000000a0: f19c a53d f157 22be cc35 abbd e1d6 033e
000000b0: 4922 2fbe 2b90 cabd 5002 9f3d 10eb 00be
000000c0: 1588 e53c d2ad 55bc f951 793d 0a17 c03c
000000d0: c0d8 c4bd 24e3 6ebd d394 943b 6510 473d
000000e0: 8f26 e0bd cfbc 113d 6d48 06bd 1e63 a1bd
000000f0: c5d3 703d 82a5 a43c b309 4d3d a000 67bd
00000100: c921 e7bc d75f 0c3e dccf 6fbd e2fb 2dbe
00000110: 298b 83bc e915 9db9 9127 fa3d bd64 24bd
00000120: 4c26 1abe 554c c9bd 4773 db3d f4a2 12be
00000130: 35b4 f53d ead5 e0bd 58e6 b7bd 6648 103d
00000140: 7106 b7bb 71c5 73bc 7251 3dbd dc14 883c
00000150: 2720 8ebd 14c2 843d 7aaf b2bd 77e8 e4b7
00000160: 0f29 76bd ba45 15be 5a99 573d 91f9 443d
00000170: 3f9b bcbc 4e88 ecbd fa5e cfbd a980 8c3c
00000180: fc37 ef3c 62ce 2e3d fb5a e43b ba92 fbbc
00000190: 5562 88bd 9ed9 313a 7d2a 28bd b146 5abb
000001a0: 4311 d73d 16e3 9ebc 2f42 c9bc 297f 43bd
000001b0: 1105 623d 6c51 7dbd b8e4 f9bd 2124 20be
000001c0: bb33 213c 00ae 273d 13f3 6f3d 30ee bd3c
000001d0: e79d 24be ebcc f9bd cfac e73c e798 f73d
000001e0: 59ce 9bbd e8d5 b3bd 0194 a2bd 6b6a aa3c
000001f0: b7e6 b7bd a766 c43c b002 b53d 2709 26be
00000200: 5d36 233c a7e6 53bd d545 ae3d 8934 983d
00000210: f7e9 863d 6935 68bd 43cd a1bd 7a43 d63c
00000220: 58fd 863d 0a1c 18be bffa 673d 7907 3cbd
00000230: 805c c2bd 0e04 863d 9576 d63d 97de 393d
00000240: 1188 973c 3426 523d 6ece 91bd 156d 283d
00000250: 45aa 683d 0b85 303c 99db 963d 9fa7 62bd
00000260: 3746 d1bd cdda a7bc bb07 b2bc be85 7b3d
00000270: 8a90 943b 79cf 253c 5cb2 b4bc 3cc8 abbd
00000280: 116e ff3d b93b c6bd 8002 e1bd 999d d5bd
00000290: fdce 093e 92cd 82bd db74 003d d6c8 063c
000002a0: 48eb 10be f3a1 c23d b825 a53d e005 4b3d
000002b0: f557 fb3c c036 373d 8c91 e2bc f8a7 6e3d
000002c0: 8b31 8c3d 9dd5 89bb c868 5d3d f197 053c
000002d0: dfba 1e3c 0819 8abd 700f b4bc e8ed fd3d
000002e0: e114 a63d 4897 97bd 959f fa3c a745 da3b
000002f0: 5037 79bc 030e 213e 8c6d 80bd 8f72 75bc
00000300: 3de0 8fbd 5a00 c03c 7607 c6bd be0b 11be
00000310: e471 713b 70d1 fdbd 3ef6 b13c 87c2 7dbd
00000320: 9543 d0bc 188c 09be 7abd 883c 8f36 2dbe
00000330: 4c46 96bc 6ae5 06be 85b6 d9ba 1559 9f3d
00000340: 85a0 1fbe de41 0fbe f69c 2e3d 544a eabd
00000350: b88d 6e3d f7b4 2b3d 11b2 bebd 081a f0bd
00000360: ab5e 743b d697 68bd e3c0 873d 5fce c2bc
00000370: ed54 773c dd62 8bbd ca88 15be 47a7 20bc
00000380: 6572 403d 9fbf 80bd 6cfc 51bd 9335 133e
00000390: 3f6b ffbc 30be 95bd 2cb5 f4bb 8f6c f9bd
000003a0: 84d1 0d3e a6fe 11be a45f a9bd 3ec4 b03d
000003b0: a2f8 d2bd bd6b 2ebd 6713 2fbe 3c69 8d3c
000003c0: 2a28 913d 9047 3c3c d055 f3bc dd9f 3cbd
000003d0: 2ddd 8e3d 8455 27be dec7 7d3d cc71 48bd
000003e0: 3c2b 11bd 8e49 643c dee7 97bd 832c 0f3d
000003f0: e678 99bd 8fd1 123c 39da 89ba 26bb 59bd
-0.016051672 -0.080854386 -0.07603115 0.06805439 -0.1407904 -0.09209095 0.05420791 -0.07122444
-0.11566907 0.033909317 -0.006151906 -0.0026028196 0.017516172 0.03489939 -0.032718323 -0.07802941
-0.07767128 -0.11346026 -0.12831517 -0.049666096 0.051479176 -0.13146423 0.0744165 0.01594199
-0.0020854028 -0.098748155 0.052325793 0.050789524 -0.16636397 -0.17649691 0.018937763 -0.09736198
0.008961562 0.06647374 -0.010249244 0.041248854 0.08495483 0.07755077 -0.027523803 -0.14154173
0.08086575 -0.1585386 -0.0835987 0.12874939 -0.17102922 -0.09890779 0.07764113 -0.12589669
0.02801899 -0.01304193 0.06086919 0.023448486 -0.09611654 -0.058322087 0.004534343 0.04859962
-0.109448545 0.035580453 -0.032783914 -0.07880233 0.05879571 0.020098452 0.050058078 -0.05639708
-0.028214352 0.13708435 -0.05854784 -0.16990617 -0.016057568 -0.00029961698 0.12214578 -0.040135134
-0.15053672 -0.09829012 0.10715347 -0.14319974 0.119972624 -0.10978301 -0.089794815 0.035225295
-0.0055854847 -0.014878617 -0.04622025 0.016611509 -0.06939726 0.0648233 -0.08724876 -2.7287968e-05
-0.06009775 -0.1457738 0.05263648 0.048089568 -0.023023246 -0.115494356 -0.10125537 0.017151194
0.0292015 0.04267729 0.0069688535 -0.030709613 -0.0665938 0.00067844416 -0.041056145 -0.0033306296
0.10501339 -0.019395392 -0.024567692 -0.04772869 0.055180613 -0.061845228 -0.12201828 -0.15638782
0.009838994 0.040937424 0.058581423 0.023184866 -0.1607586 -0.12197288 0.028280644 0.12089711
-0.07607717 -0.08781034 -0.07938386 0.020802697 -0.08979552 0.02397473 0.08838403 -0.16214429
0.009961692 -0.05173364 0.08509413 0.07431895 0.06587594 -0.05669156 -0.07900479 0.026155222
0.0659129 -0.14854446 0.056635614 -0.045905564 -0.09490299 0.06543742 0.104718365 0.045378294
0.018497499 0.051305965 -0.071194515 0.041119654 0.056803007 0.010773907 0.07366104 -0.055335637
-0.102184705 -0.020490075 -0.021732202 0.061406843 0.004533832 0.010120266 -0.022057705 -0.08387801
0.124721654 -0.0967936 -0.10986805 -0.1043045 0.13457866 -0.06386866 0.031361442 0.008226594
-0.14152253 0.095035456 0.08063835 0.04956615 0.03068159 0.044729948 -0.027657293 0.058265656
0.06845387 -0.004206373 0.054055005 0.008153901 0.009688108 -0.067430556 -0.021980017 0.12398893
0.08109451 -0.074019015 0.030593673 0.0066611352 -0.015210941 0.15728001 -0.062708944 -0.014980926
-0.07025192 0.023437668 -0.09669392 -0.14164636 0.0036841566 -0.12393463 0.021723863 -0.061953094
-0.02542285 -0.13432348 0.016691912 -0.16915344 -0.018344067 -0.13173452 -0.0016610181 0.07780663
-0.15588577 -0.1398997 0.04263016 -0.11439958 0.058240622 0.04192063 -0.09311307 -0.11723715
0.0037287872 -0.056785427 0.06628587 -0.023780046 0.0150959315 -0.06805966 -0.14602962 -0.009805507
0.046984095 -0.06286549 -0.05126612 0.14375906 -0.031179069 -0.07311666 -0.0074678864 -0.12178909
0.13849455 -0.14257297 -0.08270195 0.0863118 -0.10301329 -0.042583216 -0.17097245 0.017262094
0.07087739 0.011491671 -0.029704005 -0.046050895 0.0697578 -0.16341215 0.061958186 -0.04893665
-0.035441622 0.013933552 -0.07417272 0.03495456 -0.07493763 0.0089610955 -0.0010517306 -0.053156994
