models/lstm_model.pth (torch, 206133 bytes, 9 tensors)

lstm.weight_ih_l0 f4 [256, 1]
000000 44 0f 67 3f a0 27 28 bd 80 a7 c7 bd d8 cf 0a 3f
       0.9025767 -0.041053414 -0.09748745 0.54223394
000010 21 63 34 3d e9 3a f9 bd 73 81 bb be eb 7a 4f 3b
       0.04403985 -0.12169439 -0.366222 0.0031658958
000020 eb 46 e9 bd d8 46 44 3e 2a f3 b9 3c 5f 90 03 be
       -0.1139048 0.1916765 0.022698957 -0.12848042
000030 1f 51 05 3f c2 36 9a 3e 91 0e 47 3f c9 3a 37 be
       0.52076906 0.30119902 0.777566 -0.17893519
000040 90 87 4d 3f fd ca 98 3d 7d b7 eb bd 9c a0 a0 3d
       0.80284977 0.07460592 -0.11509607 0.07843134
000050 de 59 56 3e ac 6a e6 3e 16 ed 7f 3f 62 bb 11 3f
       0.20932719 0.4500326 0.9997114 0.5692655
000060 21 16 14 3e 8d d1 4f 3e 98 91 1c be 70 62 fe 3d
       0.14461567 0.20294781 -0.15289915 0.12421119
000070 4c 13 06 3d 8c ca 1f 3f 1a 3d ab bd 31 76 a5 be
       0.032733247 0.62418437 -0.083612636 -0.32316735
000080 16 91 97 bd 9d 2d 70 bc 0a 14 0d 3e c8 67 1a 3f
       -0.0740072 -0.014659313 0.13777176 0.6031461
000090 a7 40 90 bd 26 fa 9c 3b ca 28 7e 3d 57 54 a0 bd
       -0.070435815 0.004790562 0.06205062 -0.078285865
0000a0 b3 ed 2a 3e 89 c7 15 3e d4 ed c3 be 73 25 f2 bd
       0.16692238 0.14626898 -0.38267386 -0.11823549
0000b0 c4 cd 1f bc 35 08 ee bd a3 1e 55 3f 97 74 ef bc
       -0.009753648 -0.11622659 0.8324987 -0.029230399
0000c0 f1 eb 57 3f eb 65 a4 bd 96 c8 d4 bc 18 37 0a 3f
       0.84344393 -0.08027252 -0.025974553 0.53990316
0000d0 c4 ec 01 3f 6a 64 9a bd ed 9e 78 3e 6c ed 1d be
       0.507519 -0.07538684 0.24279375 -0.154226
0000e0 f1 2f 58 3f 58 22 9e bd 6b cb 5a 3f 83 c2 5b 3e
       0.8444815 -0.07721394 0.8546664 0.21460919
0000f0 26 c1 d5 3d 01 77 e1 bd b4 5f 35 3f 8f 62 4c 3f
       0.10437231 -0.11009026 0.70849156 0.7983789
000100 4c f7 ec be ae e4 d2 bd 7d e4 bd bb 91 36 b3 be
       -0.46282423 -0.102975234 -0.00579506 -0.35002568
000110 69 c4 9c bb 44 b3 58 3d 14 7a 99 bd 31 4f 3a 3e
       -0.004784156 0.052905336 -0.07493988 0.18194272
000120 56 5e 0f 3d 06 df 8f bd ef 54 25 be 6e e0 9d bd
       0.035002075 -0.0702496 -0.16145681 -0.07708822
000130 9a a8 6b be e0 8b 63 be a4 52 c7 be 6f b0 38 3e
       -0.23013535 -0.22221327 -0.38930237 0.18036054
000140 b2 19 88 be 33 a8 31 be 66 6f a3 bd 6c eb fa 3c
       -0.26582104 -0.17349319 -0.07980232 0.030629836
000150 85 75 cc bd 85 ee 98 bd 2d 2a a7 be 2c f1 93 be
       -0.099833526 -0.07467369 -0.32649365 -0.28894937
000160 15 fc 4a bc 58 0d a6 3c ae ef 1a be 9d e2 a4 3c
       -0.012389203 0.020270035 -0.15130493 0.020127589
000170 65 5f a8 3d ec 98 e9 be a8 56 93 3d 22 80 d0 3c
       0.0822132 -0.45624483 0.07194263 0.025451723
000180 ee 87 04 3d c6 5d 1f be 88 3e 9f 3e a4 72 e9 bd
       0.032356195 -0.15563115 0.31102395 -0.11398819
000190 a2 2f 9f bd a4 8a 4e be 56 c2 d0 bc 3b 18 23 be
       -0.07772757 -0.20170075 -0.025483292 -0.15927212
0001a0 8b 60 d2 3c 50 83 88 bd f5 1d 05 3e 31 4d 2a 3c
       0.0256808 -0.06665671 0.12999709 0.01039438
0001b0 c1 96 03 bc d1 ac 47 bd 25 f2 d7 be bf 43 47 bd
       -0.008031548 -0.048748795 -0.4217693 -0.048648592
0001c0 99 8a 2d bf 92 dd 93 3d 2b c5 55 be c3 86 ff bd
       -0.6778961 0.072199956 -0.20875995 -0.12476876
0001d0 68 63 28 be f7 da a7 3d 13 1d 1a bf de b9 17 bd
       -0.1644417 0.08196061 -0.60200614 -0.03704249
0001e0 e2 37 ea be 92 01 1b 3d 93 e9 a9 be 6a 75 19 3d
       -0.4574576 0.037843294 -0.33186015 0.03746549
0001f0 6f 4a 22 bc 15 47 94 3d 0d 65 cf be fa d2 97 be
       -0.009905442 0.0724012 -0.40506783 -0.2965315
000200 a4 76 c4 3e 82 37 8e bd e4 6b 94 bc c5 a5 a0 3e
       0.38371766 -0.06944181 -0.018117853 0.31376472
000210 1f 6a 1d 3e 07 f5 6b bd 67 88 d6 be d9 88 e9 3d
       0.15372513 -0.057606723 -0.41900942 0.11403055
000220 79 03 7b 3d 1e 12 a5 bd a3 6c 2a 3d 07 2f 8f ba
       0.06128261 -0.08060096 0.04160751 -0.001092405
000230 2e 4e 88 be 47 0f 6c be 96 88 63 3e f1 00 1e be
       -0.26622146 -0.23052703 0.22220072 -0.15430047
000240 9d 93 8e be ec 27 1a 3e f0 41 48 be 96 d0 35 bd
       -0.27846995 0.15054291 -0.19556403 -0.044388376
000250 ca cf 19 be a5 ee 36 be 4c 8c a0 3e be f6 61 3e
       -0.15020671 -0.17864473 0.31357038 0.22066781
000260 01 e1 c8 bd 23 7c 5e be f4 39 3b 3e 03 08 3e be
       -0.09808541 -0.21727042 0.18283826 -0.18557744
000270 f7 9a a0 be 25 b9 3e 3e 66 31 76 bc af 33 55 3e
       -0.3136823 0.18625315 -0.015026426 0.20820497
000280 15 c8 bf bd 87 95 45 3e 89 f5 c8 3e 8f 09 29 3e
       -0.093643345 0.19295321 0.39249828 0.16507553
000290 b9 d7 be 3c 96 73 3c bd 90 0a 2a 3e c8 73 c8 3d
       0.023296224 -0.04600867 0.16605592 0.097877085
0002a0 0e 65 a3 3e ef 27 30 be 96 d1 90 3e 4d ec 86 bd
       0.31913036 -0.17202733 0.282849 -0.065880395
0002b0 7e 4f 8d 3c 12 d5 b2 bc 37 1f bc be 8f ef a6 bd
       0.017249819 -0.021830115 -0.36742565 -0.08151161
0002c0 f4 6b bd 3e 24 f1 8e be 18 8f 55 3e df cc 8e be
       0.36996424 -0.2791835 0.20855367 -0.2789068
0002d0 ed 68 92 be 30 f1 0b 3e 35 db 7b 3d 38 f1 f8 3d
       -0.28595677 0.13666224 0.06148835 0.12155384
0002e0 5d ea a3 be a2 90 09 3d 3c 85 b3 be b0 74 b5 be
       -0.32014742 0.0335852 -0.35062587 -0.35440588
0002f0 74 92 76 3d fc 4f ea 3a 2f 45 c3 be 19 74 ad be
       0.060198262 0.001787662 -0.3813872 -0.33877638
000300 cc 77 58 3f 3a 5e b0 3c 43 86 16 be 42 49 ec 3e
       0.84557796 0.021529306 -0.14699654 0.4614964
000310 95 50 65 bd 24 71 a4 bb b6 2c a9 bd f1 11 e8 3d
       -0.055985052 -0.00501837 -0.08260481 0.11331547
000320 d9 21 15 be b8 bd d6 3d ca c7 dc bc 42 45 2a be
       -0.14563693 0.10485405 -0.026950736 -0.16627982
000330 91 11 27 3e 09 85 1b 3d a6 6d 1b 3f de 63 2b be
       0.16315295 0.03796867 0.60714185 -0.16737315
000340 9f 3e 0e 3f cd 27 46 be 5d 69 e7 bd 9a a7 75 3d
       0.555643 -0.1935112 -0.11299393 0.05997429
000350 92 bd 56 3d 1d bf f2 3d 27 40 48 3f 4e 49 0f 3f
       0.052426882 0.11852858 0.7822289 0.5597123
000360 b3 18 c8 bd fb 9e 6c 3e ae a2 42 be 18 0e 28 be
       -0.09770336 0.23107521 -0.1900737 -0.16411626
000370 a1 d4 ad 3e f0 1c 21 3f 5b 90 2e be 10 8b 4b be
       0.33951285 0.6293478 -0.17047255 -0.19877267
000380 29 96 49 be ba 02 9d 3b 75 96 df 3e b5 39 ff 3e
       -0.19686188 0.004791585 0.43669477 0.49848714
000390 83 7e 73 be 14 95 b0 bd 94 b3 3c 3c bb 0c 81 3d
       -0.23778729 -0.086221844 0.011517424 0.06301256
0003a0 74 ee 4d 3e 32 ec 96 3d e7 1d d7 be 33 2b 00 be
       0.20110494 0.073692694 -0.42015 -0.12516479
0003b0 f6 de 09 bc b1 e1 74 bd a0 a1 2a 3f 3b eb 37 be
       -0.008414974 -0.05978555 0.6665287 -0.17960827
0003c0 38 a0 6d 3f ec e9 b2 bd ac 49 9e 3b 71 44 e1 3e
       0.928226 -0.08736023 0.0048305597 0.4399753
0003d0 1c 9d 2b 3e 37 c6 14 be a6 92 ba 3d 9b c6 5d be
       0.16759151 -0.14528738 0.09110002 -0.21657793
0003e0 bb bd 3f 3f 18 18 d0 bd 42 1c 45 3f f1 59 1e 3e
       0.7489888 -0.101608455 0.76996243 0.15463997
0003f0 e5 4c 18 bd 02 a8 2b 3d 12 ec 44 3f 0d 61 42 3f
       -0.037182707 0.04190827 0.76922715 0.7592934

lstm.weight_hh_l0 f4 [256, 64]
000000 34 fe a5 be dd 05 7d 3e 24 20 5f bd 20 d8 24 bf
       -0.32420504 0.24709268 -0.05447401 -0.6439228
000010 f5 7a 05 3d 5e 18 39 be 49 7a 5f 3e b1 7e 28 3e
       0.032587964 -0.18075702 0.21823992 0.16454579
000020 44 f1 4e 3d 66 4b f8 3d e8 da 30 be 10 4d aa 3d
       0.050523058 0.12123756 -0.17271006 0.0831548
000030 e9 52 6f 3e 0b 30 ea 3d 15 55 98 be ee ca 0e bd
       0.23371471 0.11434945 -0.29752412 -0.034861498
000040 db 5f a4 3e 04 b2 26 bd 5d 7d ed 3d db f7 da 3d
       0.32104382 -0.040697113 0.11596177 0.10691806
000050 cb 1c 27 3f ba b8 2f 3e c2 21 ea be 0c ca 1d bf
       0.6527831 0.17160311 -0.4572888 -0.61636424
000060 37 71 04 3c df 6c b3 3e ce a7 50 be d6 34 76 3e
       0.008083633 0.35044 -0.20376512 0.24043593
000070 f2 c7 2d bd 89 f0 b6 be 73 87 c2 3d 4a 83 ca 3c
       -0.04242701 -0.3573039 0.09498491 0.024720807
000080 04 01 b0 bd 34 ae 14 be c0 02 d1 bc 54 4b 7e be
       -0.08593944 -0.14519578 -0.025514007 -0.24833423
000090 ea 3d 01 be af 8c 39 3d 63 9c b5 be fe ff b6 3d
       -0.12621275 0.045300182 -0.35470876 0.089355454
0000a0 b0 3f 93 be 15 5e 36 3e 3c 78 92 3e 98 a6 56 bd
       -0.28759527 0.17809327 0.28607357 -0.05240497
0000b0 d9 9b 91 3d b0 54 f2 3c 2d 73 6f 3e 37 66 14 3e
       0.07109804 0.029581398 0.2338378 0.14492117
0000c0 42 f2 10 bf cb 6d bf 3d 6a 44 7e be da d2 eb 3e
       -0.56619656 0.09347113 -0.24830785 0.46059304
0000d0 42 8d 9f 3e bc cb 7c be 68 89 c8 be f1 cc 48 bd
       0.3116246 -0.24687093 -0.39167333 -0.049023572
0000e0 39 7a 1d 3f 10 74 83 bd 9c 16 11 3f 19 94 59 3e
       0.6151462 -0.064186215 0.56675124 0.21247901
0000f0 3e d4 95 be b9 ee f1 bd f0 5f 0a 3f 56 6f f0 3e
       -0.2926349 -0.11813111 0.5405264 0.46959943
000100 0f 68 f2 3d d6 7f 11 bd 55 e3 5a bd 0e b5 0c be
       0.11836254 -0.035522304 -0.053439457 -0.13740942
000110 d5 97 6e bd bd 36 68 3d 70 77 04 be a8 0f 4c 3d
       -0.058250267 0.056692827 -0.12936187 0.04981962
000120 dd c9 1b be 89 04 7b bc 1f ac 5c bc ec 81 a7 bc
       -0.15213723 -0.0153209055 -0.013468771 -0.020447694
000130 cb 8d 89 bb a7 78 40 bd 8c 9e 0c be f3 d3 36 3e
       -0.0041978112 -0.046990063 -0.13732356 0.1785429
000140 95 cc e5 3d 54 78 9d 3d 9d 9c db bd 94 b0 fe 3d
       0.112206616 0.076889664 -0.10723231 0.12436023
000150 3f 07 f6 3d 12 ad f8 38 fe 44 d6 bd cf a2 18 be
       0.12013101 0.000118577984 -0.10462378 -0.14905857
000160 9b f5 b5 3d 45 72 ea bd 13 cf c8 b9 b0 ce 63 bd
       0.08884736 -0.114475764 -0.00038301255 -0.055617034
000170 f5 5d 67 bd 6b df ff 3d aa f0 ab 3d fe 87 5c 3d
       -0.05648609 0.124937855 0.083955124 0.05384063
000180 f9 7b 0f bc 6d e0 fa 3d 8c 62 48 3d 70 8f 05 3d
       -0.008757585 0.12249837 0.048922107 0.032607496
000190 bf da 93 3c 0a a5 b1 3c a9 20 1e bd f4 3c c9 3d
       0.018048642 0.021685142 -0.038605366 0.09826079
0001a0 c0 94 a7 3d bc c8 ac 3b 11 44 d3 bd 1c 48 8a 3b
       0.08182669 0.005272953 -0.10315717 0.004220022
0001b0 ef 41 ae bd db 6f e2 bd 50 93 2c 3c 40 d0 6c 3d
       -0.085086696 -0.11056491 0.010533169 0.05781579
0001c0 6c 6d 98 bd f8 86 fa bd c1 6a be 3d a3 3b 89 3d
       -0.074427456 -0.122327745 0.092977054 0.06700828
0001d0 db 54 5c 3c 8a bb 18 bc 84 b2 cf 3d 62 f7 1b be
       0.0134479655 -0.009322057 0.10141471 -0.15231088
0001e0 64 f4 ce 3d 94 eb 9e bd 75 93 a9 3c 5c 09 34 3d
       0.101052076 -0.07759777 0.020700196 0.04395424
0001f0 65 bd 6a 3d 07 b7 01 3e 3c 2b 53 3d 25 4f 00 be
       0.057309527 0.12667476 0.051554903 -0.12530191
000200 8d 06 ae 3d 7a 6a db 3d 97 03 94 3c dd 95 ac 3d
       0.08497343 0.10713668 0.018068118 0.08427022
000210 03 98 cf bd 2e 2a 13 be ba a5 1d be 4c 4d 89 bd
       -0.10136416 -0.14371559 -0.15395251 -0.06704196
000220 5a 9d d4 bd 3b 0d 14 be 73 ff 7d bd 9f 14 54 bd
       -0.10381575 -0.14458172 -0.062011193 -0.05177748
000230 7d f2 2e be da 99 ff 3b 76 4d b5 bd 2b 81 00 be
       -0.1708469 0.007800323 -0.08852665 -0.12549274
000240 f7 14 ea 3d f1 1f c8 3c c7 4d 5c bd c8 2e a4 3d
       0.1142978 0.024429293 -0.05378511 0.08016735
000250 81 aa 1d bd 25 aa 66 bd 8a cc 47 bb 88 d7 26 3e
       -0.038492683 -0.056314606 -0.0030486905 0.16293156
000260 00 c0 50 3c a4 84 1a be 69 bc 78 bd 10 9c 53 bd
       0.012741089 -0.15089661 -0.060726557 -0.051662505
000270 25 cd d9 bd 5b 34 28 3e d8 76 14 be b3 5d 1f 3d
       -0.10634831 0.16426222 -0.1449846 0.038907718
000280 c4 a8 96 bd 63 43 ae 3d c4 0a e9 3d f9 2d e0 3c
       -0.07356408 0.08508947 0.113790065 0.027365671
000290 98 e0 b6 3c 60 1d 83 bd 1a 72 19 3e da 71 83 3d
       0.022323892 -0.06402087 0.14984933 0.064182
0002a0 57 18 fa 3c c8 dd e7 3c 19 f6 8c bd b4 21 66 bd
       0.030529184 0.028303996 -0.06882877 -0.056184486
0002b0 5c be be 3d 36 84 dc bc 19 f8 59 3a 63 45 07 3c
       0.09313652 -0.026918512 0.00083148625 0.008256289
0002c0 86 75 0c 3d a1 3c 1e bd 4d c8 85 bd 80 cf a5 3c
       0.034291767 -0.03863204 -0.06532345 0.020240545
0002d0 b9 d5 2b bd f2 c7 ca bd 4c b1 6c bd 69 4e be 3d
       -0.04195187 -0.09901418 -0.05778627 0.09292299
0002e0 bc d3 4d be cc f3 01 3d 3d 13 f5 3c a9 52 1f 3d
       -0.20100302 0.031726643 0.0299164 0.03889719
0002f0 bd a3 2e 3c b8 98 11 3e 5a 52 2b be c7 5c 60 bd
       0.010659155 0.14218414 -0.16730633 -0.05477598
000300 3b 62 a9 be 94 3b e0 3d cf 58 f0 3d 50 8e dd be
       -0.33082756 0.109488636 0.11735689 -0.43272638
000310 fa f5 44 3b 82 a8 92 bd 26 92 c2 3c 4e ab 8c 3d
       0.003005384 -0.071610466 0.02375133 0.06868611
000320 94 6b e5 3c 98 1b 0e 3e 69 1e bc bd 88 0a e5 bc
       0.028005399 0.13877714 -0.09185488 -0.027959123
000330 32 6e a8 3e 9a c2 36 3e 23 94 a5 be 4a bc 94 bc
       0.32896572 0.17847672 -0.32339582 -0.01815619
000340 6e ea 8d 3e ee 5a 89 be be 6e 3c 3e 02 81 37 3d
       0.27717918 -0.26827186 0.1840162 0.044800766
000350 c6 a1 a8 3e 74 f0 56 3d 2d 66 c9 be 87 fc 3c bd
       0.32935923 0.052475408 -0.39335766 -0.046139266
000360 ec 29 42 3d 2c 8d 06 3e 1e 60 33 be a8 29 60 3e
       0.04740326 0.1313979 -0.17517135 0.2189089
000370 42 b5 ef bd 44 88 b6 be c0 ee 03 bc ce cb 17 be
       -0.11704494 -0.35650837 -0.008052528 -0.14823839
000380 66 d8 55 bc 80 21 d0 bd 8d b9 c7 bb ec 88 3b be
       -0.013052082 -0.101626396 -0.0060951174 -0.1831395
000390 16 3c e5 bc 87 a2 a6 bd fe ae 56 bd 36 ee 12 3d
       -0.027982753 -0.081364684 -0.05241298 0.035871707
0003a0 08 59 8e bd 09 69 89 3e 0f 17 8b 3e 8d 22 b8 bd
       -0.06950575 0.26837948 0.2716603 -0.08990965
0003b0 8d e3 7e bd 15 e5 a2 3d 35 c3 a9 3e f1 11 fe bd
       -0.062228728 0.0795385 0.33156744 -0.12405766
0003c0 5b 57 00 bf 36 5c 87 bc 20 10 27 3c 9d 3e b3 3e
       -0.50133294 -0.016523462 0.010196716 0.35008708
0003d0 b1 ef b1 3e 8a 51 d2 bc 71 4a 74 3d d6 66 97 3d
       0.34753183 -0.025673646 0.059641305 0.07392661
0003e0 67 86 f4 3e 9d d7 0a be d4 10 89 3e 2c f0 e0 3d
       0.4775879 -0.13558812 0.2677065 0.10983309
0003f0 9f 3d aa bd 08 9e b7 bc bc 07 c8 3e c5 c7 04 3f
       -0.083125345 -0.022414222 0.390684 0.51867324

lstm.bias_ih_l0 f4 [256]
000000 32 ca a1 bd d3 a0 8d 3d 26 cd af 3d 45 1e 06 3e
       -0.07899894 0.069154404 0.08584051 0.13097484
000010 5b 32 9f bc 29 7c 28 be 6a e8 fc 3c 41 5f 04 be
       -0.019433191 -0.16453613 0.030872542 -0.12926961
000020 ec 54 0e bd 63 42 bb bd ce fb 47 3d e2 44 de bd
       -0.034748957 -0.09143522 0.048824124 -0.10852982
000030 19 b6 02 3e b8 98 97 3d 0e 50 d2 bc 72 ec b6 bd
       0.12764777 0.07402176 -0.025672939 -0.08931817
000040 5b f7 c4 bd bf 8b 71 bd fd d9 1e 3d 35 29 12 3d
       -0.09617492 -0.058971163 0.03878211 0.03568383
000050 98 89 b7 bd 8f f2 b1 bd 48 6e 29 3d bb 75 21 bd
       -0.08961791 -0.086888425 0.041364938 -0.039418917
000060 9f bd f6 bd 59 d0 c5 bc ba 64 6f bd 34 b1 87 3c
       -0.12047886 -0.0241472 -0.05844567 0.01656399
000070 0c 6e f3 3b f3 33 4c bd 94 81 0e be 42 c7 3e 3c
       0.00742889 -0.04985423 -0.13916618 0.011644186
000080 fd b4 ae bd 57 ea 18 3d 4b 7a fd 3d 58 d0 c6 3b
       -0.085306145 0.03733286 0.12376841 0.006067317
000090 02 ed cf 3d dd 3f 14 be 96 60 90 3c 3b a0 24 be
       0.101526275 -0.14477487 0.01762418 -0.16076748
0000a0 c9 f9 88 3d dd 08 5e 3d eb 7c ef bb 7f fc 55 bc
       0.06688268 0.05420767 -0.0073085926 -0.013060688
0000b0 fb ca 07 bd 5a b8 5b 3d fa b4 e3 3d ce 6a a1 bc
       -0.03315256 0.05364261 0.11118503 -0.019704249
0000c0 7f d3 3b bd 21 6c e5 3d 67 6b a4 3d e9 a0 a0 3d
       -0.045855995 0.112022646 0.08028298 0.07843191
0000d0 d3 0a b4 bd 36 ed 29 3c a6 db c4 bd 4a 58 9b 3b
       -0.08791127 0.010371497 -0.09612207 0.0047407495
0000e0 8f 54 6c bd 76 b0 b1 3c 72 dd 61 bd d4 b3 e5 3d
       -0.05769783 0.021690588 -0.055142827 0.1121594
0000f0 37 3d ab 3d 33 65 5a be 55 60 82 3c ab 5a f1 bc
       0.08361285 -0.21327667 0.015915075 -0.02946218
000100 e1 1d 02 be 5b 38 bb 3c 59 4c b8 bd 99 86 ca bd
       -0.1270671 0.02285402 -0.08998937 -0.09888954
000110 0e 50 4d 3d 0f 8a ae bd 38 7b 51 3c 11 89 11 bd
       0.050125174 -0.08522426 0.012785725 -0.035531107
000120 a1 00 11 bd 77 15 d1 3c 8c 89 0c be 02 7c 06 be
       -0.03540099 0.02552293 -0.13724345 -0.13133243
000130 dd 77 5f bd f3 8b 34 be 68 a5 9b bd f2 56 25 3d
       -0.05455767 -0.17631511 -0.07599908 0.04036612
000140 ec 26 26 bd 01 11 90 3d b9 2f b9 bd 4c 50 38 bd
       -0.040564463 0.07034493 -0.090423055 -0.044998452
000150 e0 c9 93 3c f9 25 9b bd 06 65 cc bd 9b fb 5c bd
       0.018040597 -0.07575602 -0.09980206 -0.053950887
000160 64 a9 60 3d 7f 82 20 3d ff f2 1f be 47 dc 5d bd
       0.054849043 0.03918695 -0.1562004 -0.05416515
000170 6f 96 f4 bc 0d be 4a bd fd ba c0 bd 58 27 68 3b
       -0.029856889 -0.049497653 -0.09410665 0.0035423841
000180 40 0c d3 bd 0d 6b cc bd 30 84 9f bd ac 44 35 be
       -0.10305071 -0.09981356 -0.07788885 -0.17701977
000190 f2 0a e9 bd 97 f4 14 bd af 32 09 3d 58 f5 19 be
       -0.11379041 -0.03636607 0.0334956 -0.15034997
0001a0 12 98 0b be f2 ae 8f bd b1 7d 54 3c 61 f2 5d 3d
       -0.13632229 -0.0701579 0.01296942 0.05418623
0001b0 0a 65 b4 3d 40 83 c6 bd b7 5e 57 3d 50 1d 98 bd
       0.08808334 -0.09693003 0.05258056 -0.07427466
0001c0 fc 14 0e bd 45 89 5c 3d a0 67 0c be 64 85 f7 ba
       -0.03468798 0.053841848 -0.13711405 -0.0018884358
0001d0 90 8b f5 bd 91 bd 4b bd c5 e1 03 bd 48 d8 90 bd
       -0.1198951 -0.04974133 -0.032197732 -0.070725024
0001e0 1a 59 a0 bd 4d 53 0b bd 9d 64 24 be 66 5a a7 bd
       -0.07829495 -0.03401499 -0.16054006 -0.08171539
0001f0 b5 07 a7 3d 12 20 19 bd e6 65 23 be 72 60 86 be
       0.08155767 -0.0373841 -0.1595684 -0.26245457
000200 cd 7e 41 bd 2c 65 de bd a9 e6 0d 3c 35 d3 ee bc
       -0.047240067 -0.10859141 0.008660951 -0.029153446
000210 18 a8 e5 3c a1 69 5c bd da 88 d3 3b b5 3c 89 bd
       0.028034255 -0.053811673 0.006455523 -0.06701032
000220 6c 20 49 3c 76 36 64 3d 45 8f eb bb 60 c5 65 3d
       0.012275796 0.055716 -0.00718871 0.056096435
000230 be 53 57 3d 08 8b 4c 3d 0f 8c 1d bd e0 fd d1 bd
       0.052570097 0.049937278 -0.03846365 -0.10253501
000240 06 17 6e 3c 55 ec c8 bd 44 41 66 3d 32 ca b1 bd
       0.014531856 -0.09810702 0.056214586 -0.08681144
000250 5b c3 c6 3d 99 52 02 3d 3b a4 da bb de c8 05 3d
       0.0970523 0.031817053 -0.00667241 0.032662265
000260 9f 94 fd 3c 3b b1 8a bb b5 f5 09 bc 71 5d 0f 3d
       0.030954657 -0.0042325533 -0.0084203975 0.035001222
000270 46 d2 9c 3c 7e 44 3d 3d 8a 05 aa 3b d8 89 9c 3d
       0.019143235 0.046207897 0.0051886486 0.07643479
000280 fc 94 21 bd 47 d3 ed 3c b1 48 49 bc ef 89 43 bd
       -0.039448723 0.029031409 -0.012285397 -0.047738966
000290 6e eb ce 3a 41 09 4c bd c8 ad 98 3c 92 88 21 bc
       0.0015786716 -0.049813513 0.018637553 -0.009859221
0002a0 b5 9c a2 bc b9 83 ca 3c e5 aa cd bd ab bf 77 3d
       -0.019850114 0.024721013 -0.10042361 0.060485523
0002b0 15 8f ad 3d cc 48 67 bd c8 9d a9 3d 28 be 79 bd
       0.08474556 -0.05646591 0.082820475 -0.060972363
0002c0 d9 2f bf 3c c9 38 6e bd aa 49 5a bd d6 95 0f 3c
       0.023338245 -0.058159623 -0.053292908 0.008763751
0002d0 20 14 b0 3d e5 1c 59 3d 07 29 9e 3d b0 d0 05 3e
       0.085975885 0.05300607 0.07722669 0.13067889
0002e0 4f 02 fe bc 0c de 4a bc 5f 8e 98 3c ff 08 64 3c
       -0.03100696 -0.012382042 0.018622575 0.01391816
0002f0 b4 b7 c5 bc ba f7 61 3d 23 44 8f 3b eb c1 9c bc
       -0.024135448 0.05516789 0.004372136 -0.019135436
000300 42 4e 24 3e d1 86 86 3d 37 e1 3f 3d a2 22 85 3e
       0.16045478 0.06568683 0.04684564 0.26002985
000310 b0 4b 19 be 63 e0 fb bd e1 24 49 3e 50 e8 07 be
       -0.14970279 -0.12298658 0.19642974 -0.13272214
000320 55 17 b0 3d 85 49 1a bd c0 5a 8f bd f0 8d b5 bd
       0.085982 -0.03766777 -0.06999731 -0.08864963
000330 38 de 71 bd 97 6d b0 bc 5c 36 00 be f8 64 d3 bd
       -0.059049815 -0.021536632 -0.12520736 -0.10321993
000340 49 ee f7 3c 29 4b 2e 3d 39 95 6d 3d 55 56 08 be
       0.03026499 0.042552147 0.058003638 -0.13314183
000350 4d ae fb bc 55 3b b3 3d 09 79 19 3d 61 09 d2 3b
       -0.030722762 0.08751551 0.037468944 0.0064098095
000360 4e 67 5d bc f1 ff af bd f4 3f dd 3d 6a 0e 0c be
       -0.013513399 -0.08593739 0.10803214 -0.13677374
000370 83 55 d2 3b ed 28 18 be 24 c4 8d 39 5e 6f f3 3d
       0.006418885 -0.14859362 0.00027039752 0.11886476
000380 22 41 7a 3d 34 9d 46 bd fa 1a 88 bb 98 d6 fb bc
       0.06109727 -0.048489764 -0.0041536065 -0.030741975
000390 5b 62 86 bd ec bb ad bd 98 32 37 bd 36 13 c6 bd
       -0.065617286 -0.08483109 -0.044725984 -0.09671633
0003a0 ca f1 02 3e a9 5a e3 bb 68 6b 53 3e ae 55 a6 bd
       0.12787548 -0.006938298 0.20646441 -0.08121811
0003b0 07 1c 4b 3d bb 14 1b bc 52 23 17 3e d7 87 a6 3d
       0.049587276 -0.009465392 0.14759567 0.08131378
0003c0 f2 6a 28 3e b8 8e 0d bd 21 18 d7 3c 5c 83 a4 3d
       0.16447046 -0.034559935 0.026256623 0.08032867
0003d0 c2 95 ff 3d 4e bf df 3d 90 86 fc bc 54 ae 19 bd
       0.12479736 0.1092516 -0.030825883 -0.037519768
0003e0 c7 95 2c 3d 61 2a 01 be c7 e9 5e 3e c5 0b cd 3d
       0.042135026 -0.12613823 0.21768866 0.100120105
0003f0 63 a9 b9 bd 49 2f 05 bd dc 3a db 3d c8 a8 63 bb
       -0.09065511 -0.032515798 0.10704586 -0.0034738053

lstm.bias_hh_l0 f4 [256]
000000 47 db 83 3c 9f 82 b2 bd 7a 47 98 bd 6c 6e 60 3e
       0.01609577 -0.0871632 -0.07435508 0.21917123
000010 b2 55 de bd cb 83 80 ba 22 43 ae 3d 34 cc 08 bd
       -0.10856189 -0.0009804902 0.08508898 -0.03339787
000020 7f 2b 6f bd 25 c6 7a 3d 81 01 69 bc 1c c3 fb bd
       -0.05839109 0.06122412 -0.01422155 -0.122930735
000030 8e 96 c3 bc e6 76 c6 3c 36 22 08 be 37 61 9b 3d
       -0.023875501 0.024226617 -0.132943 0.07586902
000040 79 f5 e3 bd 52 66 2d bd 4c a0 9c 3d c5 a8 aa bd
       -0.111308046 -0.04233391 0.07647762 -0.083329715
000050 7d a1 cc 3d a6 41 ed 3d 57 d1 e1 bd 19 65 e7 bc
       0.09991739 0.11584787 -0.110262565 -0.02824645
000060 bb 7a 8e 3d 06 d8 27 bd 1a 27 05 bd a9 dc 64 3d
       0.06957003 -0.0409775 -0.032507993 0.0558745
000070 25 03 77 bd 8f 0a 36 3d 85 18 90 bc 88 c2 36 bd
       -0.060305733 0.044443663 -0.017589817 -0.044619113
000080 71 6a b0 3d 2d db e0 3d 33 a3 c4 3d 7b e0 0b be
       0.08614052 0.109793045 0.0960144 -0.13659851
000090 ff 39 c3 3c 48 e7 87 bd 77 8e 3d bd 1a da 1b be
       0.023831366 -0.0663591 -0.046278443 -0.15219918
0000a0 e9 fd 4a 3e b4 64 80 3d e4 de 0d 3e 9f be 4d bc
       0.19823422 0.062692076 0.13854557 -0.012557655
0000b0 2e b6 d3 bd 2a 4e 9b 3d c7 e4 fd 3c 44 d5 8f bd
       -0.103374824 0.07583268 0.030992879 -0.07023099
0000c0 75 41 39 3e 48 4d 85 3d 5f fe b8 3d f9 61 8e 3c
       0.18091376 0.06508881 0.090328924 0.017380701
0000d0 64 b2 62 bd 66 dc 42 bc c2 78 4a 3d 47 ae 54 bd
       -0.055345908 -0.011893367 0.04943157 -0.051924016
0000e0 50 97 35 3d bb f5 97 3d 82 09 18 3b 30 18 23 3e
       0.044333756 0.07419916 0.0023199026 0.15927196
0000f0 97 c7 99 3d 7b 1d 18 be 87 cf 36 3d 00 65 36 3e
       0.07508772 -0.14854996 0.044631507 0.17811966
000100 52 9e 33 bd a1 94 7f bd c5 21 a8 3d 2b 09 01 be
       -0.043852158 -0.062397603 0.08209566 -0.12601154
000110 04 0e ea 37 31 3b 92 3d 39 d1 17 be 32 8a cf bd
       2.79015e-05 0.07140196 -0.14825906 -0.101337805
000120 08 ce 8b bd c2 5a 5b bd 92 b9 5a 3d d7 97 a9 bd
       -0.06826407 -0.05355335 0.05339963 -0.08280914
000130 aa 1c 82 bc 27 ad 4a be d7 ed 45 be 41 6f 50 be
       -0.015882809 -0.19792615 -0.1932901 -0.2035494
000140 fd 97 0c be 44 89 2e bd 9e 6b 23 be 3c 4d 0e bd
       -0.13729854 -0.042611375 -0.15959021 -0.034741625
000150 15 2d d1 3b 51 a8 d7 bd 9c 88 3e bc d6 90 54 3d
       0.006383548 -0.10530151 -0.01162925 0.05189594
000160 26 63 e3 bd fc 88 1f be 1f f2 f2 3b ab 02 17 be
       -0.111028954 -0.15579599 0.007414117 -0.14747111
000170 37 56 82 bd f9 4c 3e be ff 3f 8b 3d f1 61 f0 bd
       -0.063641004 -0.1858405 0.06799316 -0.11737431
000180 ee cf d0 3d 89 5b 3b 3d be b3 8a bd b7 ab fb bc
       0.101959094 0.04574159 -0.06772564 -0.030721528
000190 83 f9 2a bc ea f9 3a bd 79 46 a6 3d a1 f9 9c bd
       -0.010435465 -0.045648493 0.0811891 -0.076648004
0001a0 0d 9d 2b be 5b 28 0e be 30 14 48 be 96 c5 8c 3c
       -0.16759129 -0.13882582 -0.19538951 0.01718406
0001b0 eb 70 04 be 20 9c 53 3d d6 2c f3 bd b7 a3 cf bd
       -0.129337 0.051662564 -0.11873786 -0.10138648
0001c0 9f f3 37 be b1 8e 1e 3d ea a7 45 bd d9 46 1b be
       -0.17964028 0.0387103 -0.04825584 -0.15163745
0001d0 95 55 0d bd c3 f9 e7 bd d2 9c 25 3d 4e b8 27 bd
       -0.034505446 -0.11326935 0.04043276 -0.04094725
0001e0 13 ac fc bd db 7a f8 bd 23 86 a9 bd 24 14 2e be
       -0.12337508 -0.12132808 -0.08277538 -0.1699987
0001f0 ce f1 39 bd b6 cb 07 be 0b 82 37 be ef eb 2c bd
       -0.04539662 -0.13261303 -0.17920701 -0.04221719
000200 04 04 c8 bd 75 e6 cb 3d d7 0c e8 3b 55 1c d6 bc
       -0.09766391 0.099560656 0.0070816088 -0.026136557
000210 0e 1d 3d bc 0f bf 86 3d 8d ae 9f bc 1f bf d3 3d
       -0.011542572 0.0657941 -0.019492412 0.10339188
000220 97 92 db 3c 41 93 bf 3d 6d 99 c9 3c a9 a7 95 bb
       0.026803298 0.09354258 0.024609292 -0.004567106
000230 a7 d6 ca 3d 6d 45 3a 3d 8c 1e 13 bc 1c 73 e8 3d
       0.09904223 0.045476366 -0.008979451 0.1135008
000240 75 fb 21 3c 03 7d 1d bc 22 a7 07 3d ff 1c 28 bd
       0.009886612 -0.009612325 0.033118375 -0.041043278
000250 13 f1 ec bd 5a c7 dd 3d b5 d8 c3 bd f9 a2 e1 bb
       -0.11569419 0.10829039 -0.09562818 -0.006885883
000260 36 6c ea 3d bb f4 90 3b 30 7d 87 bd dd 33 2e 3d
       0.11446421 0.0044237054 -0.066156745 0.04252993
000270 88 76 db bc 93 a9 c7 bd 09 4c 69 3d 18 37 ea bd
       -0.026789919 -0.097491406 0.05695728 -0.114362895
000280 22 c3 cc bd a6 f9 e6 bb af 74 3b 3d 4b 31 95 3d
       -0.09998156 -0.0070488034 0.045765575 0.072847925
000290 6f 6a 51 bd fa 95 17 bd 26 2f cc bc 09 48 16 bd
       -0.051126894 -0.037008263 -0.024924826 -0.03668979
0002a0 1c 12 02 3c 31 ae e8 bb df e6 cd 3d 77 1e 99 bd
       0.007938888 -0.0071008434 0.10053801 -0.07476514
0002b0 a2 3b 7a bd 87 22 89 3d 86 4b f8 3a f9 4f ff 3c
       -0.061092027 0.06696039 0.0018943406 0.031166064
0002c0 d1 fd 23 be 7b ff 80 3d d5 68 11 bd 85 e7 a9 3d
       -0.16014792 0.06298729 -0.035500366 0.08296112
0002d0 77 f3 35 3d 5a 8b 9b bd df 9e 30 3d 8e 3b 93 ba
       0.04442164 -0.075949386 0.04312026 -0.0011232959
0002e0 56 d6 cd 3d 06 11 d8 bc 44 33 f6 bd 1b dd 27 bd
       0.10050647 -0.026375305 -0.12021497 -0.040982347
0002f0 66 6c d4 3c 72 a1 aa bd 25 75 7f 3d 6e 0c a6 3d
       0.025930595 -0.083315745 0.062367577 0.081078395
000300 71 75 a6 3d 08 59 bc 3d 6d 94 f3 bc 79 eb 8b 3e
       0.08127869 0.09196669 -0.02973386 0.2732809
000310 e0 c6 10 bd b5 c4 f1 bd 78 6b c4 3a 73 01 81 3d
       -0.035345912 -0.11805097 0.0014985641 0.062991045
000320 c5 a8 aa bd 1d d5 cb bd 09 b3 d7 3c e1 c6 26 be
       -0.083329715 -0.099527575 0.026330488 -0.16286804
000330 28 f7 be bb 3d ea b1 bd 4d 79 fc bd 44 1b d0 bd
       -0.005827803 -0.086872555 -0.12327824 -0.101614505
000340 36 5f 09 3e 1c 34 ea bd 33 3b 56 bd 9d c7 e3 bd
       0.13415226 -0.1143572 -0.05230255 -0.111220576
000350 92 88 dd 3b fb 28 8f bd 6b e6 41 3e b1 f3 8c bc
       0.006760665 -0.06990238 0.18935554 -0.017206045
000360 71 85 88 bd f4 67 5a 3d 58 7b ba 3d b4 46 5c 3d
       -0.06666077 0.053321794 0.09105557 0.053778365
000370 91 82 f7 3d ef 47 82 3c 26 f2 10 3d af 84 47 3d
       0.120854504 0.015903441 0.03538718 0.04871052
000380 e9 ad a3 bd 54 88 da 3d 9f 5b 48 3d ea 3f 8d 3d
       -0.07992155 0.10670534 0.0489155 0.06896956
000390 8b 4c 8c 3c 2c aa 81 3d 31 5f 57 bc b6 9d f0 bd
       0.017126342 0.06331286 -0.013145254 -0.11748831
0003a0 b8 dc 4f bb 91 b1 38 3d fc 42 2c 3e 05 bd e6 bd
       -0.0031717252 0.045091216 0.16822428 -0.11266521
0003b0 25 ff f0 3c 08 01 08 bd 41 35 f7 bc da 3b b8 bd
       0.029418537 -0.03320411 -0.03017676 -0.08995791
0003c0 f1 b2 cc 3c db 68 4e 3e 94 c8 f2 3d 05 bf 5a 3d
       0.02498767 0.20157187 0.118546635 0.053404827
0003d0 14 53 ba 3d 27 1f 00 be 08 d1 60 3c a8 f9 cb 3b
       0.09097877 -0.12511884 0.013721712 0.0062248297
0003e0 a8 95 29 3e e6 8a b5 3d 08 c2 f8 3d ca 4e 22 3e
       0.16560996 0.088643834 0.121463835 0.15850368
0003f0 3b 64 0d be 50 3e 28 be f6 63 a6 3d 00 5a 00 3e
       -0.13807766 -0.1643002 0.08124535 0.12534332

lstm.weight_ih_l1 f4 [256, 64]
000000 12 04 de 3d b9 66 c9 3d fb a1 88 3d 2a 8a a1 3d
       0.1084062 0.09834046 0.0667152 0.07887681
000010 dc 66 40 3c 6b c9 c7 bd 8d 94 28 be 20 99 d6 bb
       0.011743274 -0.09755214 -0.16462918 -0.0065490156
000020 4a 01 99 3d 49 2f 7c bd 10 c6 94 bd 5b e5 a3 3d
       0.07470949 -0.061568532 -0.0726434 0.080027305
000030 a9 d4 56 bd 7e c7 0f be f2 fa e7 3d aa 3f 50 bd
       -0.052448902 -0.14040944 0.11327161 -0.050841965
000040 c6 59 02 be f9 b0 94 3d 5f de 64 3d de 6d c8 3a
       -0.12729558 0.07260317 0.055876132 0.0015291532
000050 41 60 11 3d 8b 1c 28 bd 93 ba 40 3e e1 ad 5f 3e
       0.035492186 -0.041042846 0.18821172 0.21843673
000060 18 93 ea bb 47 3a a8 bd 83 3a 0b bc b5 01 bd bd
       -0.007158648 -0.082142405 -0.008497837 -0.09228841
000070 c8 7c d9 bd 02 e4 da 3c 23 df 93 bd a1 51 e5 bc
       -0.10619503 0.02672005 -0.07220294 -0.027993025
000080 41 90 0f 3d 4d ab 89 3d 6f d8 33 3e a0 c1 db 3c
       0.03504968 0.06722126 0.17563032 0.026825726
000090 88 22 90 3d 6e fa 6e bd 1b a2 26 3d cf 03 cc 3d
       0.07037836 -0.058344297 0.04068194 0.09961664
0000a0 8e 78 92 3d 46 86 93 bd bc aa 89 3d 70 c3 92 3d
       0.071519 -0.07203345 0.06722018 0.07166183
0000b0 df 52 95 bd c0 4f 8a bd 6d f9 18 be 3d 1c 29 bb
       -0.07291197 -0.06753492 -0.14938898 -0.0025804185
0000c0 14 a3 a3 3e 88 ae e1 bd c9 8b 00 3e 11 72 32 be
       0.31960356 -0.11019617 0.12553324 -0.17426325
0000d0 47 bc e5 3c 85 07 c8 3d 58 dd bf ba 0e 92 b3 bd
       0.02804388 0.09767059 -0.0014638109 -0.08768092
0000e0 5d c2 1f be 84 13 c2 3c 01 0d 51 be c8 5d f7 bd
       -0.15601487 0.023690946 -0.20415117 -0.12078434
0000f0 80 4c d1 bc 61 97 b6 3d e7 ed 09 be ff 2c 0e be
       -0.025549173 0.08915592 -0.13469659 -0.13884352
000100 17 75 2d 3d 1d ca eb bc 43 6d 3a bc d1 67 cd 3d
       0.042347994 -0.028782899 -0.011378589 0.10029567
000110 87 d4 cb bc da 61 7e bd 4a 4b 92 3d ad c2 88 3c
       -0.024881614 -0.062105037 0.071432665 0.016694391
000120 09 c7 1e bd 53 18 cd 3b 1f 91 d7 3c 75 fc d6 3c
       -0.038764033 0.006259003 0.026314316 0.026243428
000130 47 58 89 bc b5 5c 12 3c 13 9b 00 be 65 1d 8e 3d
       -0.016765727 0.008933236 -0.12559156 0.069392
000140 cb ec 9a bd 13 bd 07 3e 7b 83 fc bd b7 6e 89 3d
       -0.07564696 0.1325572 -0.123297654 0.0671057
000150 cf 68 d5 3d 00 b0 e6 bc 1a 68 33 3d 6d 5e 00 be
       0.10420381 -0.028160095 0.04380045 -0.1253602
000160 0e 58 c8 3c cd 01 fc bd 79 82 cb 3c 76 24 5b 3d
       0.02445605 -0.12305031 0.024842488 0.05350157
000170 9f 17 5f bd f2 a8 28 be cf 1d 68 3d 55 ca ec bd
       -0.054465886 -0.16470698 0.056669053 -0.11562029
000180 31 4a c7 bd 78 38 e8 3d 4b 88 19 3e 04 fb 52 bd
       -0.09730948 0.113388956 0.14993398 -0.05150892
000190 9d f3 1f 3d 8f 28 d7 3d 28 4c 5b 3d 6d 92 b1 bd
       0.039050687 0.10505783 0.053539425 -0.086705066
0001a0 b0 4b 0a 3e 9f 1d 09 bb 6c 91 41 3d 90 5f aa bd
       0.13505435 -0.0020922197 0.047257826 -0.08319008
0001b0 d2 59 1d 3d 54 38 1a be c3 9b 6d bd 41 41 76 bc
       0.038415737 -0.1506055 -0.058009874 -0.015030206
0001c0 36 7e bb 3d f4 2c 51 3d 43 a2 3c 3d 13 a6 7d bd
       0.09154932 0.05106826 0.046053182 -0.06192596
0001d0 b1 52 e9 bd f4 c3 90 3d f7 1d 85 bd 4d 02 c4 3c
       -0.11392725 0.07068625 -0.06499856 0.023926878
0001e0 6d a6 48 bd 13 f4 fb 3d 56 e6 d3 3b f8 0c a7 bd
       -0.04898684 0.12302413 0.006466667 -0.081567705
0001f0 72 b5 a0 3c 8e af 25 3d a8 87 9c bd 1a 78 a4 bd
       0.01961777 0.040450625 -0.07643062 -0.0803072
000200 9f b2 90 bd 9b 8b 2f 3d fc dc 8e 3d 58 1c b2 3d
       -0.07065319 0.042857748 0.06975743 0.086968124
000210 08 82 61 bd 0e ac 6a 3d 1c d0 c5 3c b2 4d d0 3d
       -0.055055648 0.05729299 0.024147086 0.10171069
000220 c1 00 cf 3d 2e c0 ae bd 31 2e 8d 3d e3 6c 90 bd
       0.10107566 -0.08532749 0.06893576 -0.070520185
000230 3c b7 ea bd c7 85 99 bb cd 36 15 be 2f a2 22 bd
       -0.114607304 -0.004685137 -0.14571686 -0.03970545
000240 f5 3e f1 bd 24 b3 ac 3a c8 72 24 be 4e 38 c3 bb
       -0.11779586 0.0013175947 -0.1605941 -0.00595764
000250 ae cd b6 3d a5 de 4a 3b 7e e6 ab bd 71 1d 13 bd
       0.08925949 0.003095546 -0.08393572 -0.03591675
000260 d5 24 06 3c 1a c8 ea bd 7e 0b bc 3d 63 38 16 be
       0.008187492 -0.114639476 0.091818795 -0.14669947
000270 a7 d1 11 be d9 ff c0 3c 84 e6 13 3b b9 89 a6 bd
       -0.14240132 0.023559498 0.0022567818 -0.08131737
000280 20 1f 0b 3e 70 10 63 bd 21 f2 7f 3e 26 b5 3f bd
       0.13586092 -0.055435598 0.24994709 -0.046803616
000290 15 83 8b bd 39 de b6 bd 1d f3 ae bc c9 85 a5 3d
       -0.06812111 -0.08929104 -0.02135616 0.08082158
0002a0 f3 22 b6 3d 69 c1 a3 bd dc aa ee 3d 2a a4 b5 3d
       0.08893385 -0.079958744 0.116536826 0.088692024
0002b0 be 97 2a 3d 42 1d b5 3d 3c 45 88 3d 5f 55 a6 3c
       0.04164862 0.08843471 0.066538304 0.02030438
0002c0 af 78 0e bd 00 8e 67 bd 4e 73 ef 3a c1 38 dc bd
       -0.03478306 -0.056531906 0.0018268616 -0.107530124
0002d0 a1 2a 60 3d 16 a3 97 3d 4b 19 e7 bd b3 e4 01 be
       0.054728154 0.07404153 -0.11284121 -0.12684898
0002e0 ba 0d 9d bd 50 6d 79 3d ea d5 e8 bd 8d 0a 13 be
       -0.07668634 0.060895264 -0.11368926 -0.14359494
0002f0 8d 84 0c 3d d2 67 92 bd fc be 9d bd ed 7c e0 bc
       0.034306098 -0.071487084 -0.07702443 -0.02740332
000300 d6 fc ad 3d ea b3 29 3d 77 87 9a 3c 43 67 05 be
       0.0849549 0.041431345 0.018863423 -0.13027672
000310 e3 eb b0 bd d3 67 eb bd 15 e7 e0 bd 3f 97 1e bd
       -0.08638742 -0.11494412 -0.109815754 -0.03871846
000320 79 2f 2f be 53 b4 b9 bd c9 62 8b 3b 07 52 4d 3c
       -0.17107953 -0.09067597 0.0042537195 0.012531764
000330 c6 75 90 3c af 0e 2a 3d 80 1b 2b be 23 2a 3f 3d
       0.017634284 0.04151791 -0.16709709 0.046671044
000340 11 84 af 3d 7b 55 be 3d dd 76 82 3d a6 eb e0 38
       0.085701115 0.09293648 0.063703276 0.00010725045
000350 0c 4b bf 3d 2f 79 1d 3d 67 dc 48 3d 2f 89 78 be
       0.09340486 0.038445648 0.049038317 -0.24271081
000360 25 30 28 be 95 37 20 3d f9 41 7f 3d 14 37 6b 3d
       -0.16424616 0.039115507 0.062318776 0.057425573
000370 d4 ff a2 3c b4 3f dc bd 54 a0 83 3d d3 d0 fe bd
       0.019897379 -0.10754338 0.064270645 -0.12442174
000380 2d ff bf 3d 14 d8 05 3e 3e c2 b0 bc cc 36 e9 bd
       0.09374843 0.13070709 -0.021576997 -0.11387405
000390 1c e9 aa 3d 48 22 cf 3d 52 cb f4 3d 8f 98 9a 3d
       0.08345243 0.101139605 0.11952843 0.075486295
0003a0 66 f8 de 3d 31 08 75 bd 5b 8e a6 3c a1 1c fb 3c
       0.10887222 -0.059822265 0.020331552 0.0306533
0003b0 36 8a 47 3d 08 97 b8 bb e6 dc d6 bc d1 4d 11 3e
       0.048715793 -0.0056332387 -0.02622838 0.14189841
0003c0 95 4c 22 be 29 6a 64 bd c8 88 24 3d 48 ee 3c 3d
       -0.15849526 -0.055765305 0.040169507 0.04612568
0003d0 76 52 ab bc 2c 40 e9 3c d6 5d 01 be 27 1d 36 3d
       -0.020913344 0.028472982 -0.12633452 0.044461396
0003e0 ad 61 d4 3c 97 65 fe bc d5 d8 da bc 66 23 07 be
       0.025925482 -0.031054301 -0.026714722 -0.13197097
0003f0 e0 24 00 3d ed 68 0a 3d 28 48 53 3d a2 aa ca 3d
       0.031285167 0.03379147 0.051582485 0.09895827

lstm.weight_hh_l1 f4 [256, 64]
000000 e0 ab 4b bb 28 db 20 bd e7 02 71 bc 6f ce ab bb
       -0.0031077787 -0.039271504 -0.014710165 -0.0052431147
000010 c2 53 16 bb a7 88 29 bc bc 9a 6d 3d c4 a8 42 bd
       -0.0022938107 -0.010347522 0.058008894 -0.04752423
000020 8e 9e ca 3d aa 50 fc 3b b4 17 07 3d cd e6 cc 3d
       0.09893523 0.0077000456 0.03298159 0.10004959
000030 c3 71 b7 3d 1b 23 be bd f2 f1 0a 3e 21 f0 c5 3d
       0.08957245 -0.092840396 0.13568857 0.096649416
000040 5e 52 c1 bd 5e f8 46 bd ef 87 8f 3d d5 e3 7d bc
       -0.094395384 -0.048576705 0.07008349 -0.015496214
000050 d4 ad cc 3d 33 e5 ca bd 47 c1 5b 3d 4f 4f e6 3d
       0.099940926 -0.099069975 0.05365112 0.11245596
000060 08 87 4a bd 01 14 cd 3c c5 d0 b4 bd de 40 dc bd
       -0.049445182 0.025033953 -0.08828882 -0.1075456
000070 db 7b 0c bd 99 55 1a bd 2c 51 de 3d 16 cd 23 3d
       -0.034297805 -0.03767929 0.10855326 0.039990507
000080 05 a0 8b 3d 9a 43 e4 bc a5 39 fb bc 15 ba d5 bd
       0.06817631 -0.027864266 -0.030667135 -0.10435883
000090 1f fa ad bd a6 ce bd bd 6c 3a 80 bd 25 74 0c 3e
       -0.084949724 -0.09267931 -0.06261143 0.1371618
0000a0 24 c7 c6 bd 65 11 e8 3d 2b 4e 22 3d 66 41 d7 bd
       -0.09705952 0.11331443 0.039625328 -0.10510521
0000b0 25 71 8b bd 1e 21 58 3d aa 7b f5 3c e7 7a 41 3d
       -0.0680869 0.052765958 0.029966194 0.04723635
0000c0 19 8e 9a bd 06 e0 19 be 25 dd a6 bd e9 17 e4 3d
       -0.07546634 -0.15026864 -0.08147649 0.11137373
0000d0 0e 30 3c bd 3d 1b b6 bd 81 c6 7e bd 3b e9 b3 bd
       -0.045944266 -0.08891914 -0.062201027 -0.087847196
0000e0 35 95 f6 3c dd 1d f9 3d a5 f8 8f bc c7 77 af 3c
       0.030100444 0.12163899 -0.017574618 0.021419419
0000f0 29 38 f6 3d aa d4 e7 3d ed 84 57 3b d4 9a 00 bd
       0.120224304 0.11319859 0.0032885626 -0.031397656
000100 47 4b 57 bc 80 4c 22 be 9f ee 25 bd 62 0d 5b bd
       -0.013140506 -0.15849495 -0.04051077 -0.05347956
000110 d3 18 bf 3d 67 6e 93 bc 34 9d 96 3b d6 62 68 3c
       0.09330907 -0.01799698 0.004596377 0.014183721
000120 36 61 fa bd 6f 1b a1 3d 37 17 97 bc 70 17 9f 3d
       -0.12225573 0.07866561 -0.018443687 0.07768142
000130 b2 68 6f bb c2 2c 25 3e 25 bb d7 bd f7 75 69 3d
       -0.003653091 0.16130355 -0.10533742 0.056997266
000140 91 e5 4f bc 0c a8 ea 3c d4 bc 21 3d 4b cc 55 bd
       -0.01268901 0.028644584 0.03948672 -0.052196782
000150 99 4d f2 3a 0a 1e 7b 3d 6b 8d 00 be d0 90 a0 3d
       0.0018486261 0.061307944 -0.12553947 0.07840121
000160 cb 81 84 3d 86 98 b7 ba 7d 88 e9 bc 07 15 e4 3d
       0.064700685 -0.0014007248 -0.028507465 0.11136823
000170 d0 59 2f bd bf c0 40 bd 09 d1 28 3c b4 da 6e 3d
       -0.04281026 -0.047058817 0.010303744 0.05831404
000180 c2 ef 23 3e 50 83 26 3d 51 ec 14 be 60 9d 82 bd
       0.16009429 0.040652573 -0.14543273 -0.06377673
000190 77 75 d6 3d 2c 32 e5 3c d4 89 4f 3a 06 4a 00 3d
       0.104716234 0.027978025 0.00079169613 0.031320594
0001a0 f5 ee d0 3c 10 04 ec 3d 49 a7 99 bd 2e 2a 87 bd
       0.025504569 0.11524212 -0.0750261 -0.06599842
0001b0 b3 63 25 3d 5b 33 7c 3d 1b 10 05 be 60 9c 0b 3e
       0.040378284 0.061572414 -0.12994425 0.13633871
0001c0 63 68 c6 bd 92 d8 af 3c f7 7e 27 3d dd 8e 00 3e
       -0.09687879 0.021465573 0.040892567 0.12554498
0001d0 48 d4 05 3e 17 43 f3 3c 18 91 ea bb 81 df 97 bd
       0.1306926 0.029695077 -0.00715841 -0.07415677
0001e0 0a ff 37 bd e0 b5 95 3c bb 12 c0 3d 41 53 f3 bd
       -0.04492096 0.018275201 0.093785726 -0.11881114
0001f0 35 5f a0 bd 25 8a 7e 3d 63 f0 2e bd d5 37 c6 3d
       -0.07830659 0.062143464 -0.04270972 0.09678618
000200 cd a8 24 bd b8 e1 88 3c 49 58 94 3d ff 34 03 bd
       -0.040200043 0.016709194 0.072434016 -0.032032963
000210 57 95 6c 3d 0c 30 5d 3b f3 fe 11 be 3c c5 4b bd
       0.05775961 0.0033750562 -0.14257412 -0.049748644
000220 6e fb 81 3d ba fb 89 3d a3 3a fe bd 95 b0 45 bd
       0.063467845 0.06737466 -0.12413528 -0.048264105
000230 73 e7 53 3c a3 b8 a4 bd d3 b0 0a 3e 12 4d f2 3d
       0.0129336 -0.08043029 0.13544016 0.11831106
000240 8c 3d 93 bc d6 72 8f 3c 59 68 76 3d a1 e2 b0 bb
       -0.017973684 0.017510813 0.060158107 -0.00539811
000250 c7 4b 3d bd c0 34 25 3c 94 d0 0c be fa 75 4b 3c
       -0.046214845 0.010083377 -0.13751441 0.0124182645
000260 dc b1 01 3e ad 80 a4 bd b0 96 4c bd a9 1f ec 3c
       0.12665504 -0.080323555 -0.049948394 0.02882369
000270 e2 99 52 3d d5 c6 c8 bd 6d aa fe 3d 70 cd 04 be
       0.051416285 -0.09803549 0.1243485 -0.12968993
000280 65 72 20 3d 00 ce ca bd ee 7e 8a 3d b4 af ca bd
       0.039171595 -0.09902573 0.06762491 -0.09896794
000290 3d da 24 bd 65 03 bb bd 15 9a 44 bd d8 e6 3a 3d
       -0.04024719 -0.09131507 -0.047998507 0.045630306
0002a0 df 8d 4e 3c 57 9e af bd b1 a5 aa 3d f4 95 00 3e
       0.012607067 -0.08575123 0.083323844 0.12557203
0002b0 59 da bf 3c ab 93 0f 3d b5 91 77 bd 67 e7 58 3d
       0.023419546 0.035052937 -0.06044169 0.052955057
0002c0 2e b5 22 bd cf dc 12 bd b1 93 2b bd d4 9a 78 3c
       -0.039723568 -0.03585511 -0.041888896 0.015173633
0002d0 fb c6 70 bc 16 2d 56 3d 45 a6 f5 3d ac 47 3f bd
       -0.014695878 0.05228909 0.11994604 -0.04669921
0002e0 c2 94 f2 bc 8e 12 08 3d 9e 67 85 bd 6f d0 d7 3d
       -0.029611949 0.03322082 -0.06513904 0.105378024
0002f0 4f 48 c9 bd 08 06 6a bd 9d bf c3 bc 67 b4 1a bc
       -0.09828245 -0.057134658 -0.02389508 -0.009442425
000300 98 ad 39 be 8a ad 88 bd 9b 65 8c bd 07 75 86 bc
       -0.18132627 -0.06673725 -0.06855317 -0.016413225
000310 83 76 29 3d 65 a0 93 39 c8 80 6a 3c ed 31 2e be
       0.041372787 0.00028157528 0.01431293 -0.17011233
000320 ce 99 a3 bc 33 11 ec bd 9d d1 de bc c4 de 65 bd
       -0.0199708 -0.11526718 -0.02719956 -0.05612065
000330 c8 65 79 3d 66 47 7a bd a0 a7 3f bb c5 b0 a8 bd
       0.06088808 -0.061103247 -0.00292442 -0.08236841
000340 13 fd 19 3d 21 24 cb 3d cb 85 15 3e 55 4f 07 3d
       0.037594866 0.099190004 0.14601819 0.03303464
000350 24 b3 45 3d 92 80 85 bd db 47 16 be 02 36 0c 3e
       0.048266545 -0.065186635 -0.14675848 0.13692477
000360 b2 c0 f4 bd 13 d5 d0 3d 36 0a 1c bd 04 50 8d 3c
       -0.11950816 0.10196891 -0.038095675 0.017250068
000370 aa 04 9e bc 0e ce 71 3c a8 84 8c bd 8a 12 25 be
       -0.019289333 0.0147586 -0.0686124 -0.16120353
000380 92 53 6a bd 06 df 0f bc 1c f9 a3 bb 4f 61 3f bd
       -0.057208605 -0.0087812 -0.0050040614 -0.04672366
000390 db 73 82 3d cd e9 05 3d 86 98 34 3e 43 cb 0f 3e
       0.06369754 0.032693673 0.17636308 0.14042382
0003a0 66 72 08 be ec b0 1d bd b2 4f 4e 3e e2 ba fd 3d
       -0.1332489 -0.038498804 0.20147589 0.12389161
0003b0 9a 94 2d be 0c c0 c6 bc 06 d3 0e be a1 e3 27 3d
       -0.16951218 -0.024261497 -0.13947687 0.04098857
0003c0 5a 6f 77 3b 46 58 e6 3c af d3 4a bb 18 1e 1f 3e
       0.003775558 0.028118264 -0.0030948927 0.15538824
0003d0 49 23 44 3c 19 53 50 bd 53 2c bf 3d ae c1 f9 bd
       0.011971303 -0.050860498 0.09334626 -0.121951446
0003e0 d0 93 fb bd d4 8c cd bc 17 1c 02 3e 1b d3 38 be
       -0.12284052 -0.025091566 0.12706028 -0.1804928
0003f0 12 a5 0a bd c9 e0 44 bd 35 8f 0d be e8 49 a7 3d
       -0.03384883 -0.048065934 -0.1382416 0.081683934

lstm.bias_ih_l1 f4 [256]
000000 43 6e f9 bd ee 0d 7d 3d 0f 37 5b 3d 8f 6e e4 bd
       -0.12179234 0.061780863 0.053519305 -0.111539
000010 ca 62 2f bd dc 99 a3 3d 1f 79 49 bc ac 2e 47 3d
       -0.042818822 0.07988331 -0.012296944 0.048628494
000020 72 e3 bb bd d3 52 57 bc c2 67 4a 3d 09 c3 46 bc
       -0.09174241 -0.013142305 0.049415357 -0.012131461
000030 ec 86 2b bc 26 6d 45 3d 7a 06 d3 bb ce 53 ee 3c
       -0.01046918 0.048199795 -0.006439981 0.029092696
000040 7e 0f e9 3d c9 23 1d be e9 e6 73 bc b8 9e 7c 3d
       0.11379908 -0.15345682 -0.014886596 0.061674803
000050 73 3d 0d be 66 d0 eb bd 42 27 23 3d 6d 41 ad bd
       -0.13792972 -0.11514358 0.03983236 -0.084597446
000060 41 f9 ce bd 82 dc 59 bc 10 1f 93 bd 79 65 dc bd
       -0.10106135 -0.013297202 -0.07183659 -0.10761542
000070 5e e4 d9 bc 71 85 d8 3d 15 13 1d be b9 bf dc 3d
       -0.026598152 0.10572327 -0.1533931 0.10778756
000080 ea c1 14 be 3d 31 9e bc e2 0e e8 3d 23 52 a5 bd
       -0.14527097 -0.019310588 0.11330964 -0.08072307
000090 32 bc 95 3d 55 e9 37 3d d1 a2 25 be a8 f4 cd 3d
       0.07311286 0.044900257 -0.16175391 0.1005643
0000a0 14 03 8c 3b 89 60 41 bd 9a fe fc 3c c9 4a e2 bd
       0.004272828 -0.047211204 0.030883122 -0.110494204
0000b0 7a 5f 38 bc bf 73 ac 3d 7f cd 4a 3d 95 8d d8 3d
       -0.011253232 0.08420514 0.049512383 0.1057388
0000c0 68 33 21 be 06 22 b5 bd 4f 3d 3b bc f3 39 93 3d
       -0.15742266 -0.0884438 -0.011428191 0.07188787
0000d0 59 0c a9 bd 44 e2 d1 bd 44 d0 c6 bd 3b 4b c5 3d
       -0.08254308 -0.10248235 -0.09707692 0.0963349
0000e0 36 5e 66 3d 4c bd 74 bd 8a 8b 29 bc 01 85 be bd
       0.05624219 -0.05975084 -0.01034821 -0.09302712
0000f0 a4 5d b6 bd a7 47 01 bd e7 2b 9b 3d 23 22 77 bd
       -0.08904579 -0.031562474 0.07576733 -0.06033529
000100 8e 43 98 3d 5e 4f 03 be 47 7b f2 bd ba a7 8d 3d
       0.0743476 -0.12823245 -0.118399195 0.06916757
000110 48 dd 2d 3c 40 01 45 3d e6 f9 83 bd 42 17 01 bd
       0.01061184 0.048096895 -0.06444149 -0.03151632
000120 0b 33 01 be 9e 09 df bc 0a 2e 8d bd 5f 0e 77 3d
       -0.12617128 -0.027226266 -0.06893547 0.06031644
000130 f8 8f bc 3c 37 37 9f 3d e0 38 f4 bd 47 7e f0 3b
       0.023017868 0.07774203 -0.119249105 0.007339272
000140 3b 4f 94 3c fe fe 8f 3d 17 f6 a8 3d 39 19 a3 3c
       0.018104186 0.07031058 0.08250063 0.019909488
000150 cc 1c f1 bd ee 1e 2b bc 35 85 37 bd 52 64 83 bd
       -0.11773071 -0.010444386 -0.04480477 -0.06415619
000160 f6 be 7d bd 01 c4 c7 bd 43 cd ec bd 20 db 9b 3d
       -0.061949693 -0.09754182 -0.11562588 0.07610154
000170 f4 d6 e4 bc 56 a8 85 bc 59 71 fd bd 78 b6 2a bc
       -0.027934529 -0.01631562 -0.12375135 -0.0104194805
000180 a4 7d 9e 3d 27 0a f8 bd 44 bd 6e 3d d3 71 eb bd
       0.07738808 -0.121113114 0.058285967 -0.114963196
000190 15 04 94 bc 47 be 18 be af f2 2c be d8 a1 cd 3c
       -0.018068353 -0.14916335 -0.16889451 0.025101587
0001a0 41 2f bf bd f5 fe 32 bd 0a 78 96 3d ec 5c 9c 3d
       -0.09335185 -0.043700177 0.073471144 0.07634911
0001b0 5e 3e 20 3d 24 db d7 bd 52 92 19 be 09 8b b5 3d
       0.039121978 -0.10539845 -0.14997223 0.088644095
0001c0 f0 2a 1c 3d 10 ed 33 3d 59 87 be 3d 3e 18 e4 bc
       0.038126886 0.043927252 0.09303159 -0.02784359
0001d0 b0 e9 df bd dd 13 8c bd f4 98 60 3c e8 96 20 3d
       -0.10933244 -0.06839726 0.013708342 0.039206415
0001e0 ef 97 c5 bd 80 c7 50 bd 25 83 f2 bd 29 fc 82 3d
       -0.0964812 -0.050971508 -0.1184142 0.06395752
0001f0 4d 1e 9f bd 49 98 a7 bd 8f 38 2d 3d 8d 11 2e bd
       -0.07769451 -0.08183343 0.042290267 -0.042497206
000200 e8 73 2d bd 52 39 bc 3c ba e8 4b bc be 94 ea 3c
       -0.042346865 0.022976551 -0.012445623 0.028635379
000210 f6 25 4b 3c 68 0c 88 3d 7c 7b 50 3d c8 c2 06 3e
       0.012399187 0.06642991 0.050899014 0.1316024
000220 6a aa 0f 3d 5f da 13 3d 2e fe b3 3d 55 13 b0 3c
       0.03507463 0.036096927 0.08788715 0.021493593
000230 05 b6 48 bd 86 9c ac bd 2c 50 ca 3d 56 52 36 bd
       -0.049001712 -0.08428292 0.09878573 -0.044512115
000240 34 71 68 bd dd 4f f2 bb 42 3b 83 bd 02 35 50 3d
       -0.056748584 -0.0073947744 -0.06407787 0.050831802
000250 51 50 91 bd 23 32 b6 3d a1 97 60 bc bb b2 f2 bc
       -0.07095397 0.088962816 -0.013708026 -0.029626241
000260 57 1c 79 3d 97 e3 d1 bd 7c 53 b9 bd 5b 55 54 bd
       0.060818043 -0.102484874 -0.090491265 -0.051839214
000270 39 0d 98 3d 27 8e 9a bd b7 af 9b bd 08 a9 0b bc
       0.07424397 -0.07546645 -0.07601874 -0.008524187
000280 58 5d 87 bc 83 21 12 bd bf 94 58 bc 7a 4c 3c bd
       -0.016524002 -0.03567649 -0.013219058 -0.04597137
000290 90 19 0e bd 4c 89 03 bd ab 9f d0 bd 84 fb 86 bd
       -0.034692347 -0.03211336 -0.10186704 -0.065909415
0002a0 61 78 92 3d 16 fd 8e 3d dc fa 49 bd b8 9c 5a bc
       0.07151867 0.06981866 -0.049311504 -0.013343029
0002b0 0c c9 a1 3d f0 b5 9b bd 2c 5d 2e 3d 8d 28 c4 bd
       0.07899675 -0.07603061 0.042569324 -0.09578047
0002c0 1c fb ee 3d fc 51 8e bd 53 04 90 bd f0 3f 96 bd
       0.11668989 -0.06949231 -0.07032075 -0.07336414
0002d0 e5 2c 9e bc 39 e7 5a 3d 25 bd 00 3d c8 be 6d 3d
       -0.019308517 0.053443167 0.031430382 0.05804327
0002e0 9c 5c 7d 3d 43 04 98 3d 20 33 28 bd fb e8 b0 3d
       0.061855897 0.07422688 -0.04106438 0.086381875
0002f0 79 c2 80 bc 1b 9e af bd 20 fd 9a 3d e7 09 fc bd
       -0.015717732 -0.08575078 0.07567811 -0.12306576
000300 0a bc d0 3d 5f fd c2 bd f9 3c 9e bd 76 3f 5c 3c
       0.101921156 -0.09520983 -0.07726473 0.013442865
000310 23 b3 ac 3c c7 b8 05 be 03 06 12 be 0e 62 24 3c
       0.021081513 -0.13058768 -0.14260106 0.010033144
000320 0c e4 f6 3b 51 b6 40 3d 29 45 02 bd ef f4 c6 bd
       0.0075345095 0.04704887 -0.031804238 -0.09714686
000330 3b 93 f6 bd da 86 0b be d4 77 21 3d 8d 59 0b be
       -0.12039801 -0.1362566 0.039420918 -0.1360838
000340 f7 0f 29 bc 16 dc 2e 3d 01 dc 87 3d f9 db 78 bd
       -0.010318748 0.04269036 0.06633759 -0.060756657
000350 57 96 e3 3c 1c 80 44 3d 4c 88 e5 ba 71 e1 2a bb
       0.027781649 0.047973737 -0.0017511933 -0.0026074315
000360 2c 3c ac bb 05 61 2d bc cb 83 27 bd 03 8a 17 be
       -0.0052561965 -0.010582213 -0.040897172 -0.14798741
000370 c4 1e a2 bd 02 9f 46 3d ea ed 00 be 70 86 52 bd
       -0.07916024 0.048491485 -0.12590757 -0.05139774
000380 03 3f 2f 3d 47 c8 bc bc 44 15 be 3d d1 68 d4 bd
       0.042784702 -0.023044718 0.092814 -0.10371555
000390 2f 66 b1 bc 6f ce 05 bc 37 51 e1 3c 94 57 43 3d
       -0.02165517 -0.008166893 0.027504547 0.047690943
0003a0 2f 0c 42 3d 2e 9a d4 bd 22 b2 81 3b 5f b2 f7 3c
       0.0473749 -0.1038097 0.0039580027 0.030236421
0003b0 20 4e 18 bc 30 03 37 3d ec 65 2c be cb 95 a1 3d
       -0.00929597 0.044680774 -0.16835755 0.07889899
0003c0 f6 f2 1a be 7f 97 d5 bd a1 c9 77 3c c7 9c f0 bd
       -0.15131745 -0.10429286 0.015123756 -0.11748653
0003d0 c4 fc e4 bd 60 4a b1 3d f0 48 80 bd 41 95 9c 3d
       -0.11181024 0.08656764 -0.06263912 0.076456554
0003e0 bf a7 c5 bd 02 82 06 be 2b 85 8a 3d 75 a8 df bc
       -0.09651136 -0.13135532 0.06763681 -0.027302006
0003f0 c2 6c 09 be c1 1f a0 3c 51 f4 5c bd b3 d5 e5 3c
       -0.13420394 0.019546391 -0.053943936 0.028056001
