models/lstm_model.pth (torch, 206133 bytes, 9 tensors)

lstm.weight_ih_l0 f4 [256, 1]
-0.06879516 0.01750798 0.07559128 -0.20223388 0.0068917796 -0.18795909 0.40719602 -0.16389275
-0.024938282 -0.12393472 0.17549972 -0.01375965 -0.10586959 0.031981476 0.0811468 0.0678176
-0.074520975 0.119112276 -0.085069574 0.4314975 -0.0354615 0.57418525 -0.09445796 0.3978702
-0.027564855 -0.056527615 0.80837154 0.73129267 -0.12068177 -0.26223165 -0.02550262 0.13519993
0.020197112 -0.10148802 -0.17225435 -0.014633321 0.14440523 -0.005867578 0.08471082 0.024419831
-0.15748616 0.16830835 -0.030603856 0.119044825 0.055302944 0.70056283 0.0071496824 0.07119203
-0.09495031 -0.05135897 -0.014077827 -0.1714355 0.054326333 -0.12873176 0.043617725 -0.031130489
-0.28294164 -0.051087566 0.1893408 -0.09023917 0.09367399 0.045014173 -0.1596571 0.005559018
0.0103268735 0.028825171 0.02256946 0.020043554 0.0116669955 0.07509976 0.016763544 -0.09186896
-0.09995295 -0.14607124 -0.119581655 -0.16051114 0.08276249 0.050045922 -0.14505616 -0.13842307
-0.12093188 -0.06621892 -0.031666487 -0.35116324 -0.040606275 -0.018176463 -0.110154025 -0.20514722
-0.023538288 0.06283185 -0.16581938 -0.040522356 -0.12405781 0.07493635 -0.0068430523 -0.027346143
-0.144582 0.051875256 -0.06636065 -0.056846797 -0.0542521 0.009823856 0.03225556 -0.07454874
-0.16678734 0.026874624 -0.14218661 -0.01056771 -0.09185304 -0.16886294 0.058807943 0.077097274
-0.1447481 -0.0805891 -0.16081065 -0.15075667 0.017776275 -0.15378255 -0.03929864 -0.09832474
-0.09998611 -0.10080307 -0.22835848 -0.13461398 -0.13846244 -0.035017997 -0.08704409 0.029076386
-0.0904757 -0.016140576 0.0669827 0.0011540017 0.106340475 0.02167942 0.20581113 0.07716369
0.058142856 -0.002062015 -0.103598155 0.040950235 0.028072095 0.07004841 0.008488044 0.22426231
-0.08243262 -0.15228756 -0.015441178 -0.2386202 0.0017939488 0.1886146 0.05652544 -0.16824184
0.11143465 0.06390191 0.24388286 -0.310872 -0.10564582 -0.08259218 0.10741252 -0.070172355
0.100941785 -0.057596575 -0.01681248 0.082526416 0.14842035 -0.078247756 0.11914536 0.07590654
-0.02865745 0.10412663 -0.0057617077 0.121289365 -0.030342199 -0.24535248 -0.05993524 -0.02532898
0.019669637 0.019255683 -0.12315271 0.024961323 0.06689435 -0.0423761 0.003519825 0.1011351
0.07967809 -0.050996453 -0.16892478 0.059810244 -0.045727775 0.13243866 0.04960312 -0.0021666875
-0.040835112 -0.09537334 0.034539223 0.027408643 -0.013624922 0.05204045 0.3790021 -0.23150901
-0.041087322 -0.19025646 -0.01784682 0.04909667 0.07981805 0.03985276 0.06054173 0.10883054
-0.14387266 -0.027196072 -0.06301591 0.35006276 -0.13608181 0.41453937 -0.10981228 0.27726275
0.07065074 0.054901455 0.5359656 0.651936 -0.039001573 -0.21785992 -0.0013138104 0.06739852
-0.05138131 -0.030680984 -0.11263729 0.1309031 0.13085847 -0.10802312 0.004940013 -0.08749331
-0.1646431 0.037406262 0.04513954 0.002984148 0.07189596 0.707771 -0.047857266 -0.06747216
-0.0010678213 -0.15358731 0.1177238 -0.019133693 -0.011782105 -0.18683772 -0.19113779 -0.18584302
-0.23764968 -0.09663773 0.04617352 -0.14941442 0.06737172 -0.12882856 0.0016609299 -0.012908385
00000000: 7ae4 8cbd e56c 8f3c 9acf 9a3d 6616 4fbe
00000010: 70d4 e13b 5978 40be ff7b d03e 80d3 27be
00000020: 5e4b ccbc 7dd1 fdbd 33b6 333e 2870 61bc
00000030: 28d2 d8bd 02ff 023d 4b30 a63d f4e3 8a3d
00000040: 749e 98bd 23f1 f33d f538 aebd 3eed dc3e
00000050: 1440 11bd cefd 123f 2d73 c1bd a5b5 cb3e
00000060: b1cf e1bc 8089 67bd 70f1 4e3f ff35 3b3f
00000070: 0128 f7bd 3a43 86be dfea d0bc da71 0a3e
00000080: 6a74 a53c f3d8 cfbd 7263 30be 99c0 6fbc
00000090: f7de 133e d044 c0bb de7c ad3d 190c c83c
000000a0: 0d44 21be 0659 2c3e f0b4 fabc c6cd f33d
000000b0: 5785 623d 1658 333f e247 ea3b 21cd 913d
000000c0: 4f75 c2bd c95d 52bd b0a6 66bc ca8c 2fbe
000000d0: 4a85 5e3d 42d2 03be 80a8 323d 5e05 ffbc
000000e0: badd 90be 3241 51bd 8ee2 413e 50cf b8bd
000000f0: 26d8 bf3d c860 383d 277d 23be 6c28 b63b
00000100: 0c32 293c c422 ec3c 97e3 b83c 6132 a43c
00000110: ed26 3f3c e7cd 993d b353 893c cb25 bcbd
00000120: 22b4 ccbd b393 15be 3ae7 f4bd 085d 24be
00000130: 617f a93d f4fc 4c3d 9a89 14be c7be 0dbe
00000140: 22ab f7bd c99d 87bd b8b4 01bd abcb b3be
00000150: c452 26bd cee6 94bc 6f98 e1bd 1d12 52be
00000160: 5ed3 c0bc fcad 803d 8ecc 29be c5fa 25bd
00000170: 0512 febd 3b78 993d af3b e0bb 0505 e0bc
00000180: 4e0d 14be 267b 543d 18e8 87bd 30d8 68bd
00000190: 7337 5ebd 3df4 203c 681e 043d 03ad 98bd
000001a0: 4dca 2abe 2c28 dc3c 5e99 11be 3024 2dbc
000001b0: 721d bcbd 68ea 2cbe 99e0 703d 2de5 9d3d
000001c0: d938 14be e60b a5bd 8cab 24be f55f 1abe
000001d0: 8d9f 913c 2c79 1dbe 9cf7 20bd 7b5e c9bd
000001e0: 85c5 ccbd d771 cebd ced6 69be 3fd8 09be
000001f0: 19c9 0dbe 086f 0fbd 2c44 b2bd 9a31 ee3c
00000200: 534b b9bd 3e39 84bc 3a2e 893d df41 973a
00000210: 09c9 d93d 0a99 b13c 27c0 523e ff07 9e3d
00000220: 3427 6e3d df22 07bb 452b d4bd 6fbb 273d
00000230: 73f7 e53c 8a75 8f3d 7011 0b3c 05a5 653e
00000240: 6fd2 a8bd 45f1 1bbe fffc 7cbc db58 74be
00000250: ef22 eb3a 3024 413e 3887 673d 9747 2cbe
00000260: da37 e43d 01df 823d 6ebc 793e 9d2a 9fbe
00000270: d65c d8bd 1726 a9bd 18fb db3d 86b6 8fbd
00000280: 91ba ce3d 63ea 6bbd 53ba 89bc 9c03 a93d
00000290: 81fb 173e 5c40 a0bd 7c02 f43d e374 9b3d
000002a0: 07c3 eabc 5840 d53d b5cc bcbb 8f66 f83d
000002b0: 3490 f8bc ae3d 7bbe a77e 75bd b97e cfbc
000002c0: 3822 a13c 18be 9d3c 7d37 fcbd b07b cc3c
000002d0: e8ff 883d 9092 2dbd ddac 663b eb1f cf3d
000002e0: 442e a33d a8e1 50bd 9efa 2cbe 96fb 743d
000002f0: 0c4d 3bbd 009e 073e a42c 4b3d fcfe 0dbb
00000300: b842 27bd 1953 c3bd 0079 0d3d 1788 e03c
00000310: 113b 5fbc 5e28 553d 900c c23e b310 6dbe
00000320: 2e4b 28bd 97d2 42be 7f33 92bc 9719 493d
00000330: a577 a33d a63c 233d 9bfa 773d 8ce2 de3d
00000340: 5b53 13be 4cca debc 7c0e 81bd 6d3b b33e
00000350: 0859 0bbe 813e d43e 43e5 e0bd 62f5 8d3e
00000360: 56b1 903d 59e0 603d 0b35 093f 47e5 263f
00000370: 1dc0 1fbd ac16 5fbe 2934 acba 3c08 8a3d
00000380: 3575 52bd b056 fbbc 61ae e6bd 760b 063e
00000390: c3ff 053e 3a3b ddbd d5df a13b b12f b3bd
000003a0: 3398 28be 4f37 193d 3de4 383d b291 433b
000003b0: 303e 933d 7b30 353f fb05 44bd d82e 8abd
000003c0: 23f6 8bba fe45 1dbe 2d19 f13d 43be 9cbc
000003d0: bb09 41bc 6352 3fbe a0b9 43be a24d 3ebe
000003e0: 705a 73be 01ea c5bd 7220 3d3d 1800 19be
000003f0: 2ffa 893d a2eb 03be 8fb3 d93a b17d 53bc

lstm.weight_hh_l0 f4 [256, 64]
-0.04573912 0.047529694 0.084062 -0.011706321 -0.03881158 0.05209558 0.04173345 -0.03249837
-0.0765847 0.08342873 0.13636197 0.02272268 -0.12394419 -0.10296298 0.049647983 0.07762451
0.0479748 0.112875655 0.03883164 -0.036000185 -0.095614195 -0.10517813 0.032842536 -0.09378988
0.03175833 0.020383142 0.128675 -0.0921686 -0.0009408466 -0.07441339 -0.08248976 -0.088936076
0.027145935 0.07500085 -0.08015857 0.04384182 0.05050212 0.08106526 0.104155794 -0.1348858
0.08118197 0.10433302 0.034217227 0.11931638 -0.12626137 0.034380633 -0.02456477 -0.083679184
-0.05412003 0.09077265 -0.038345642 -0.113823 0.13890591 0.039543163 0.06608277 -0.05590728
0.022579513 0.030006249 0.085662164 0.002388112 0.12880953 0.117271565 -0.06412154 -0.08264497
-0.09497969 0.137313 -0.08803938 -0.11659566 -0.104636736 -0.13112777 -0.13284287 0.08661547
0.01702818 -0.009841254 -0.01005608 -0.08354903 0.10756904 -0.06202063 -0.063311495 0.04459891
-0.04306137 0.08726262 0.024625447 0.059012573 0.08408868 -0.05350789 -0.0064079273 -0.098436564
0.026750702 0.123064384 -0.03758982 -0.021854315 -0.0040245457 -0.00039838965 0.06124793 0.050580855
-0.08132428 0.13963564 -0.09323485 -0.04214706 0.102159284 -0.05039497 0.08773344 -0.08995918
-0.08713495 0.1245935 0.015866386 0.07353173 0.1026792 0.06724156 0.10378718 -0.072086945
-0.049923543 -0.041992325 0.08842467 0.04175831 0.07488532 0.112465896 -0.13356794 0.027033417
-0.042098045 -0.036365915 0.061890792 0.10277202 0.04327415 -0.013378318 -0.013603702 -0.06477629
0.07270282 -0.023883676 0.049557574 -0.001323502 0.045978464 0.006920335 0.035881806 -0.0080667045
-0.025478363 0.07532662 0.09883497 -0.0045597125 -0.13586245 0.017887881 -0.14335345 0.0067064655
0.1047477 -0.042860795 -0.064228244 0.18812653 0.056966223 0.04128471 0.047484 0.024960881
-0.006415537 0.085613735 0.015334387 -0.13918109 -0.04649554 -0.03178356 0.11319061 0.03270576
0.071831025 0.15506263 -0.15268318 -0.102510735 0.061009377 0.059826385 -0.07600868 -0.03487837
0.05454362 0.12902561 0.05995638 0.025581349 0.046630513 -0.060051125 0.1305909 -0.1166631
-0.0350747 -0.04731057 0.08641594 0.034478188 0.040742993 0.03100142 0.042664405 -0.052511778
-0.0041527674 -0.13433453 -0.038996603 -0.027260412 0.028859662 0.07986484 -0.06869946 0.11711176
-0.16204168 0.11938207 0.103832975 0.07246793 0.005740335 -0.056535218 -0.03158716 0.015808458
0.18216719 0.04739105 -0.03968828 -0.05293288 -0.027275635 0.14735459 -0.034116175 -0.06436099
0.09005134 -0.09194295 -0.000986052 -0.1299116 -0.08065727 0.015047213 0.011576262 0.11205484
-0.192893 -0.008848768 -0.06318972 0.04050248 -0.028075466 -0.1035927 -0.03766164 -0.051609162
0.10598518 -0.019839967 -0.059206173 -0.08086925 -0.022273157 0.075109206 -0.058515534 -0.15457296
0.11423677 -0.0026384543 -0.069672644 -0.034033637 0.06602451 0.06862811 0.02440304 -0.023372266
-0.0068302345 -0.15159388 -0.008824104 -0.15880911 0.16367684 -0.03725851 -0.05147826 0.12121215
0.011806532 0.043911926 0.054406118 -0.012650388 0.10796957 -0.037997518 -0.14464065 0.030531766
00000000: f258 3bbd 7fae 423d b328 ac3d decb 3fbc
00000010: e4f8 1ebd 2d62 553d b2f0 2a3d 031d 05bd
00000020: 70d8 9cbd afdc aa3d 79a2 0b3e ea24 ba3c
00000030: 74d6 fdbd 41de d2bd af5b 4b3d 99f9 9e3d
00000040: 3981 443d 5a2b e73d ed0d 1f3d ee74 13bd
00000050: 60d1 c3bd a267 d7bd e585 063d e914 c0bd
00000060: 0615 023d 8cfa a63c 61c3 033e e4c2 bcbd
00000070: 26a3 76ba 0c66 98bd 64f0 a8bd 1e24 b6bd
00000080: 2761 de3c 0c9a 993d 2d2a a4bd 7b93 333d
00000090: 50db 4e3d 8b05 a63d a24f d53d 811f 0abe
000000a0: bc42 a63d 8dac d53d 5d27 0c3d 255c f43d
000000b0: a94a 01be b5d2 0c3d 0e3c c9bc fe5f abbd
000000c0: f7ac 5dbd 03e7 b93d 5210 1dbd 081c e9bd
000000d0: 5a3d 0e3e 03f8 213d 6756 873d 08ff 64bd
000000e0: acf8 b83c aacf f53c a56f af3d df81 1c3b
000000f0: a5e6 033e 132c f03d 2752 83bd c441 a9bd
00000100: b684 c2bd c79b 0c3e fe4d b4bd b5c9 eebd
00000110: c94b d6bd 5c46 06be f607 08be 7463 b13d
00000120: af7e 8b3c 363d 21bc 42c2 24bc c11b abbd
00000130: 284d dc3d 5809 7ebd 75a9 81bd 59ad 363d
00000140: 1e61 30bd bfb6 b23d 4ebb c93c 2bb7 713d
00000150: b036 ac3d 172b 5bbd 97f9 d1bb 1c99 c9bd
00000160: 4a24 db3c 2e09 fc3d c8f7 19bd d207 b3bc
00000170: 56e0 83bb f4de d0b9 1cdf 7a3d df2d 4f3d
00000180: 588d a6bd a5fc 0e3e eaf1 bebd 65a2 2cbd
00000190: e338 d13d f56a 4ebd 97ad b33d 853c b8bd
000001a0: cf73 b2bd e02a ff3d 39fa 813c ce97 963d
000001b0: 7949 d23d f1b5 893d 5f8e d43d 52a2 93bd
000001c0: a17c 4cbd 2500 2cbd fe17 b53d c30a 2b3d
000001d0: 7a5d 993d 8554 e63d 09c6 08be 2f75 dd3c
000001e0: 006f 2cbd 6df4 14bd 3381 7d3d 237a d23d
000001f0: 3c40 313d bc30 5bbc 10e2 5ebc 6ea9 84bd
00000200: 37e5 943d b3a7 c3bc e2fc 4a3d 5c79 adba
00000210: ea53 3c3d fac3 e23b cdf8 123d 362a 04bc
00000220: 00b8 d0bc d844 9a3d fd69 ca3d a469 95bb
00000230: 871f 0bbe 9b89 923c 3fcb 12be e9c1 db3b
00000240: f685 d63d cd8e 2fbd 198a 83bd 3ea4 403e
00000250: 6a55 693d 281a 293d 957e 423d c37a cc3c
00000260: 6d39 d2bb 4156 af3d 153d 7b3c 7d85 0ebe
00000270: 1b72 3ebd 7a2f 02bd 7bd0 e73d 7af6 053d
00000280: 251c 933d bdc8 1e3e fb58 1cbe 26f1 d1bd
00000290: f8e4 793d 830c 753d 70aa 9bbd 9fdc 0ebd
000002a0: 2269 5f3d 4a1f 043e d294 753d fa8f d13c
000002b0: a3ff 3e3d 2bf8 75bd 9fb9 053e 10ed eebd
000002c0: 7daa 0fbd bac8 41bd d7fa b03d 0039 0d3d
000002d0: 20e2 263d b1f6 fd3c dfc0 2e3d 9716 57bd
000002e0: f013 88bb fe8e 09be e7ba 1fbd 3a51 dfbc
000002f0: 196b ec3c 2d90 a33d 4db2 8cbd 4ad8 ef3d
00000300: 41ee 25be 967e f43d 62a6 d43d 116a 943d
00000310: 6c19 bc3b 7991 67bd 8a61 01bd bd80 813c
00000320: 098a 3a3e 1e1d 423d 2e90 22bd 26d0 58bd
00000330: 2771 dfbc 1fe4 163e 67bd 0bbd b2cf 83bd
00000340: d66c b83d 964c bcbd 6a3e 81ba 8c07 05be
00000350: a42f a5bd 9688 763c 5daa 3d3c 027d e53d
00000360: be85 45be 6cfa 10bc 9d69 81bd eee5 253d
00000370: 85fe e5bc 6928 d4bd 1843 1abd 2164 53bd
00000380: c20e d93d 6d87 a2bc 2c82 72bd c79e a5bd
00000390: 3276 b6bc dbd2 993d fcad 6fbd 6048 1ebe
000003a0: f8f4 e93d ebe9 2cbb 88b0 8ebd db66 0bbd
000003b0: dc37 873d e58c 8c3d e2e8 c73c 3277 bfbc
000003c0: 29d0 dfbb 6d3b 1bbe fa92 10bc db9e 22be
000003d0: e79a 273e 619c 18bd deda 52bd 133e f83d
000003e0: 2f70 413c fedc 333d f3d8 5e3d 9343 4fbc
000003f0: 261f dd3d 49a3 1bbd ae1c 14be c11d fa3c

lstm.bias_ih_l0 f4 [256]
0.049291894 -0.06110495 -0.083936796 0.033485625 0.0743524 -0.13649406 -0.010097442 -0.13663925
-0.09089126 -0.08872872 0.045395494 -0.10844261 -0.04108982 -0.078969195 -0.041242775 -0.07195399
-0.07968235 -0.106907256 0.10335637 -0.07354668 -0.062467743 -0.16558439 -0.10466704 -0.037123267
0.08004715 -0.110061295 0.00983882 0.11020023 -0.08498924 -0.08459233 -0.0940627 0.079687096
-0.04834364 0.021950932 -0.107289605 -0.17612167 0.066849604 -0.014180244 0.069788694 -0.0057213106
-0.02046225 -0.1377531 -0.19332556 -0.10141997 0.006670431 -0.034715857 0.0022940799 -0.0006944203
-0.05293593 -0.13652898 0.078173794 -0.020379266 0.04560373 -0.0827246 -0.12858438 -0.103910886
0.008345031 0.020072004 -0.065234 0.047202524 -0.13335712 -0.069675334 -0.017619787 -0.012214016
0.09368504 -0.03377863 -0.032752756 -0.13803944 -0.14972268 -0.043302406 0.020928398 -0.06391871
-0.08292116 -0.07247952 -0.01934213 0.13272059 0.061141618 -0.07997118 -0.12234338 0.081328005
0.06551106 -0.08461896 0.055153683 0.019097028 -0.04064119 -0.04544121 -0.054368537 -0.01833573
0.006093375 -0.12018525 0.045367356 -0.105753794 0.04710708 -0.12857838 -0.09657035 0.055085808
0.050422195 -0.07293292 -0.076605216 -0.13822022 0.015343639 0.04416941 0.09042119 0.07420812
-0.09746007 -0.09222953 -0.022946412 0.020617962 -0.0082194405 -0.050065782 -0.06705017 -0.05149626
-0.09652597 0.020662304 -0.10504311 0.00541234 -0.13342574 -0.017413544 0.040280033 -0.042006403
-0.19392896 -0.01452513 -0.031139076 0.007995308 -0.16104344 0.027427036 -0.16348098 0.050571445
0.08945609 -0.10663116 -0.13907965 0.020235933 -0.03770511 -0.1050191 -0.012242426 -0.062299825
-0.073227674 -0.08717071 0.08936231 -0.08495919 -0.06157702 -0.06150106 0.098368645 -0.030614926
-0.13308237 0.08674204 -0.06741517 0.08120799 -0.006629672 -0.05380646 -0.041439846 0.036142062
-0.038717423 -0.09530734 -0.05148863 -0.0602951 0.05572213 0.09729345 -0.11673273 -0.08587266
0.0925277 0.084682375 -0.04119258 0.07918624 -0.0041031414 -0.100675456 -0.09474575 0.07529848
-0.06506118 -0.021844853 -0.0517117 0.059003282 0.041293956 0.11392114 -0.0408156 0.08621842
-0.09854096 0.085746765 -0.04455213 0.03541549 0.05442736 -0.11058505 -0.0077009876 -0.11328607
0.01983412 0.07753314 0.030345699 0.008856068 0.07389941 -0.10202863 -0.04212405 0.0024214766
0.07955843 -0.051743776 0.017972795 -0.09219234 -0.106988885 -0.15368766 -0.08580703 -0.0891253
0.045910064 -0.0071565416 0.059422098 -0.11706609 0.08385053 0.11228001 -0.01640296 0.013923014
-0.077030644 -0.08282589 -0.10972895 0.014507157 -0.067998394 0.008899586 0.051583957 -0.0945829
-0.0036235675 -0.07646026 0.022967096 0.033930805 0.07354361 0.046579298 -0.100021474 -0.05955706
0.10232725 -0.0089048175 -0.13393894 0.05489434 -0.00081541383 0.054499846 0.08789196 0.056097213
-0.01506662 0.027947156 -0.05132996 0.1044196 -0.1344321 0.058119103 -0.021364057 0.07063237
0.074416034 -0.052892417 -0.0073099053 -0.018344132 0.09371367 0.1110282 -0.09505341 -0.08318265
-0.074832365 0.082388766 -0.018334724 -0.098715805 0.001866562 0.115507804 -0.013429878 0.005420605
00000000: 4ce6 493d 2f49 7abd 0ee7 abbd 3928 093d
00000010: 1246 983d 19c5 0bbe be6f 25bc 29eb 0bbe
00000020: 3225 babd 67b7 b5bd a0f0 393d 2917 debd
00000030: cd4d 28bd 9aba a1bd 2fee 28bd 9d5c 93bd
00000040: 8030 a3bd 31f2 dabd 81ac d33d a49f 96bd
00000050: 2dde 7fbd f48e 29be ac5b d6bd 910e 18bd
00000060: c3ef a33d d167 e1bd 0133 213c a8b0 e13d
00000070: d70e aebd be3e adbd f2a3 c0bd fd32 a33d
00000080: fb03 46bd 71d2 b33c a7ba dbbd 3d59 34be
00000090: 72e8 883d 4154 68bc 60ed 8e3d d579 bbbb
000000a0: 73a0 a7bc 260f 0dbe 23f7 45be 46b5 cfbd
000000b0: a193 da3b 3732 0ebd 4658 163b c209 36ba
000000c0: 59d3 58bd 41ce 0bbe 9519 a03d 6bf2 a6bc
000000d0: faca 3a3d 846b a9bd a0ab 03be 3bcf d4bd
000000e0: 99b9 083c 0b6e a43c 6799 85bd 6f57 413d
000000f0: c58e 08be f1b1 8ebd 5f57 90bc 4c1d 48bc
00000100: f1dd bf3d 765b 0abd c127 06bd 365a 0dbe
00000110: e750 19be dd5d 31bd 0872 ab3c d0e7 82bd
00000120: 92d2 a9bd 2570 94bd 6373 9ebc e8e7 073e
00000130: a26f 7a3d eec7 a3bd 2a8f fabd 4c8f a63d
00000140: aa2a 863d b54c adbd d4e8 613d 5f71 9c3c
00000150: 6077 26bd 9020 3abd 8bb1 5ebd d034 96bc
00000160: efaa c73b af23 f6bd 1fd3 393d 7295 d8bd
00000170: 5bf3 403d 0daa 03be adc6 c5bd a8a1 613d
00000180: 8187 4e3d db5d 95bd 32e3 9cbd 9a89 0dbe
00000190: e363 7b3c fcea 343d bf2e b93d 6dfa 973d
000001a0: 2599 c7bd d6e2 bcbd 1dfa bbbc 00e7 a83c
000001b0: d5aa 06bc c711 4dbd 9951 89bd beed 52bd
000001c0: 68af c5bd fe43 a93c d820 d7bd 005a b13b
000001d0: c2a0 08be d9a6 8ebc adfc 243d e80e 2cbd
000001e0: 5095 46be d0fa 6dbc 6017 ffbc c1fe 023c
000001f0: 92e8 24be aaae e03c 8f67 27be 0124 4f3d
00000200: c134 b73d 7061 dabd e56a 0ebe d4c5 a53c
00000210: ac70 1abd 4114 d7bd 7594 48bc 1a2e 7fbd
00000220: 64f8 95bd 8f86 b2bd 9603 b73d 15ff adbd
00000230: 2f38 7cbd 89e8 7bbd 8075 c93d 27cc fabc
00000240: bf46 08be d0a5 b13d f710 8abd 6050 a63d
00000250: b83d d9bb 2a64 5cbd d4bc 29bd b309 143d
00000260: 2996 1ebd 7f30 c3bd bee5 52bd fff7 76bd
00000270: e33c 643d ca41 c73d 9211 efbd 01de afbd
00000280: 2a7f bd3d f46d ad3d 8db9 28bd 652c a23d
00000290: a573 86bb ef2e cebd 0f0a c2bd 1736 9a3d
000002a0: cc3e 85bd faf3 b2bc a6cf 53bd 6dad 713d
000002b0: da23 293d 7d4f e93d 422e 27bd 4893 b03d
000002c0: d8cf c9bd 009c af3d 4b7c 36bd d50f 113d
000002d0: 39ef 5e3d 6a7a e2bd 9158 fcbb 8702 e8bd
000002e0: 2a7b a23c b2c9 9e3d 8b97 f83c 0b19 113c
000002f0: 9358 973d 63f4 d0bd 458a 2cbd a3b1 1e3b
00000300: 88ef a23d 48f1 53bd af3b 933c 56cf bcbd
00000310: fd1c dbbd 4c60 1dbe 99bb afbd 5387 b6bd
00000320: 310c 3c3d 6c81 eabb 9664 733d 59c0 efbd
00000330: d4b9 ab3d 10f3 e53d 805f 86bc 5a1d 643c
00000340: 3ec2 9dbd 9fa0 a9bd 92b9 e0bd 6daf 6d3c
00000350: be42 8bbd 92cf 113c b349 533d aeb4 c1bd
00000360: 6079 6dbb 3297 9cbd 7e25 bc3c 07fb 0a3d
00000370: 089e 963d efc9 3e3d 0fd8 ccbd 1bf2 73bd
00000380: f390 d13d 83e5 11bc 4a27 09be e3d8 603d
00000390: 7fc1 55ba 3b3b 5f3d b300 b43d 31c6 653d
000003a0: fcd9 76bc 6ff1 e43c 5d3f 52bd f1d9 d53d
000003b0: 92a8 09be 4c0e 6e3d ad03 afbc b4a7 903d
000003c0: 6f67 983d b8a5 58bd ee87 efbb 6f46 96bc
000003d0: f4ec bf3d c162 e33d 5dab c2bd aa5b aabd
000003e0: b641 99bd 71bb a83d b432 96bc 832b cabd
000003f0: 6da7 f43a 5b8f ec3d fe08 5cbc 559f b13b

lstm.bias_hh_l0 f4 [256]
0.08002249 -0.11462123 0.05734904 0.031143192 0.03283513 -0.17088787 0.031543337 -0.119820505
-0.1081263 -0.121086575 0.014022794 0.06020051 0.012945398 0.033863064 0.10037604 -0.07273575
0.03281868 -0.07016467 0.0048572784 0.06138441 -0.15612282 -0.12898427 0.0075234473 0.0131626865
0.00947011 0.06091113 -0.047291975 0.15293239 0.06211796 -0.064687245 0.083532915 -0.040335126
-0.09097229 -0.04327342 -0.13775234 -0.01739586 0.027614905 -0.10570766 0.007102529 -0.09414654
-0.07000486 0.037758972 -0.098508015 0.012458043 -0.048502553 -0.038393274 -0.1035705 -0.0011320513
-0.00819595 -0.13207264 0.10299426 -0.022999097 0.0626184 -0.010958973 -0.04895612 -0.038736697
-0.07087776 0.045614183 0.08030323 0.05121124 -0.12119857 0.00041080418 -0.08161336 -0.06414417
0.024907034 -0.004936977 0.050012957 0.030296454 -0.06715505 0.019791149 -0.04195595 -0.06968632
-0.038369883 -0.12987636 -0.06274925 -0.054001965 -0.076796055 -0.09575185 0.03787819 -0.1573883
0.0705456 0.10924574 0.058300152 -0.123648725 -0.14102663 0.029407807 -0.08764454 0.07303227
0.0025445311 -0.06132141 -0.011984724 0.060606524 -0.10264341 0.0904937 0.102742285 -0.02691034
0.07968654 0.071316935 -0.13702127 -0.009399618 -0.038849756 -0.046129942 -0.12572044 0.04078212
-0.14068103 0.075329155 -0.09764123 -0.047203247 -0.12455399 -0.20146562 -0.056376934 0.058223534
0.085014 -0.13062231 0.08734234 -0.020116389 -0.16128409 0.010138035 -0.06683309 0.0058613177
-0.080488026 0.025354221 -0.07871067 0.04584589 -0.04858942 -0.03912037 -0.015591173 0.017513866
0.027784185 -0.0452228 0.06487163 -0.0072061555 0.040808313 0.085142516 0.06651188 -0.07082129
0.03915673 -0.012254461 -0.021567035 0.002993168 0.031872805 -0.022036301 -0.054872658 -0.06062806
-0.042729612 0.053912237 -0.10401963 -0.064032786 0.017124813 0.022458632 -0.03827703 0.029003892
0.06002273 0.011773941 -0.039418917 0.025380133 0.06645136 -0.111908466 -0.10603829 0.11128942
-0.08414872 -0.11186992 0.07414723 -0.082359515 -0.07538803 0.062033862 -0.10169635 -0.08505451
-0.0361385 0.008071675 0.03228032 -0.08912309 -0.023554271 -0.013908897 -0.033667542 0.02398171
0.021378534 -0.039358485 0.09335178 -0.03580051 -0.07252212 -0.03058127 0.065605365 -0.09725031
-0.037909284 -0.038145073 0.108491786 -0.076447845 -0.009319733 -0.09967647 0.026806446 -0.05410209
0.0061673317 0.029624594 -0.11524251 -0.036379766 0.01331925 -0.053351473 0.008694377 -0.042766113
0.004795152 -0.024289208 -0.013161236 0.116852336 -0.030945126 -0.029290896 0.030964242 -0.030510932
-0.08909801 0.01058248 -0.078581944 0.016827105 -0.16965733 -0.070359014 0.00037986753 0.05732561
0.093782425 -0.0013202304 0.132075 0.017285045 -0.11313489 0.04942647 0.05132342 -0.1361846
0.104790635 0.04848677 -0.07802116 -0.032477524 -0.10252951 -0.028370809 -0.06245685 -0.022280125
-0.0049652853 -0.12346093 -0.06925886 -0.12733833 -0.016850462 0.026672807 -0.0891084 -0.049957518
-0.14378776 -0.0058553694 -0.1062003 -0.11912246 0.059652496 -0.0049672103 -0.04813688 0.0846204
-0.08174095 -0.07172651 0.028503759 -0.08431295 0.05337633 -0.061337158 -0.0074665556 -0.016674032
00000000: d5e2 a33d 89be eabd d4e6 6a3d 0220 ff3c
00000010: 217e 063d 3bfd 2ebe 9633 013d 7464 f5bd
00000020: 5271 ddbd 3dfc f7bd dcbf 653c cf94 763d
00000030: ef18 543c ffb3 0a3d f491 cd3d 7bf6 94bd
00000040: e16c 063d 7fb2 8fbd ce29 9f3b 386e 7b3d
00000050: a9de 1fbe 7414 04be 4087 f63b 4fa8 573c
00000060: 8528 1b3c f37d 793d 3bb5 41bd 4f9a 1c3e
00000070: 676f 7e3d bf7a 84bd 4e13 ab3d 7236 25bd
00000080: ae4f babd 783f 31bd f30e 0dbe c381 8ebc
00000090: a738 e23c 427d d8bd 55bc e83b e7cf c0bd
000000a0: b55e 8fbd 27a9 1a3d 92be c9bd d21c 4c3c
000000b0: 9daa 46bd 4442 1dbd c51c d4bd 5761 94ba
000000c0: 4e48 06bc 0d3e 07be a8ee d23d 9a68 bcbc
000000d0: 133e 803d 448d 33bc 3686 48bd 5faa 1ebd
000000e0: 5c28 91bd f0d5 3a3d 0576 a43d e1c2 513d
000000f0: f536 f8bd 3461 d739 e824 a7bd 055e 83bd
00000100: d609 cc3c 5dc6 a1bb 63da 4c3d 4530 f83c
00000110: 9688 89bd 0c21 a23c 01da 2bbd b4b7 8ebd
00000120: bd29 1dbd 4ffe 04be ae82 80bd 2a31 5dbd
00000130: 4047 9dbd 8c19 c4bd 2926 1b3d 662a 21be
00000140: 367a 903d 3bbc df3d 24cc 6e3d 8b3b fdbd
00000150: 4969 10be a4e8 f03c fb7e b3bd f191 953d
00000160: 26c2 263b 292c 7bbd 935b 44bc 8c3e 783d
00000170: b536 d2bd c354 b93d 8c6a d23d 1373 dcbc
00000180: b232 a33d 9d0e 923d 4e4f 0cbe db00 1abc
00000190: ec20 1fbd c0f2 3cbd dcbc 00be 270b 273d
000001a0: b00e 10be 2c46 9a3d 20f8 c7bd 3158 41bd
000001b0: 2a16 ffbd 014d 4ebe 80eb 66bd cd7b 6e3d
000001c0: d21b ae3d dbc1 05be 8ae0 b23d 20cb a4bc
000001d0: a827 25be 001a 263c c9df 88bd 4c10 c03b
000001e0: e8d6 a4bd a8b3 cf3c 0f33 a1bd e6c8 3b3d
000001f0: b305 47bd ae3c 20bd 1f72 7fbc 3d79 8f3c
00000200: a99b e33c 8b3b 39bd 6bdb 843d 9d21 ecbb
00000210: 9e26 273d 335f ae3d 6137 883d c10a 91bd
00000220: cf62 203d efc6 48bc 5aad b0bc 0729 443b
00000230: 0f8d 023d 7985 b4bc 27c2 60bd 2155 78bd
00000240: 3f05 2fbd 14d3 5c3d 3e08 d5bd 9f23 83bd
00000250: 5649 8c3c 2afb b73c 60c8 1cbd 9299 ed3c
00000260: 65da 753d 7de7 403c bb75 21bd ffe9 cf3c
00000270: a717 883d 4430 e5bd 9a2a d9bd b5eb e33d
00000280: 2a56 acbd 0e1c e5bd 81da 973d 1bac a8bd
00000290: 0a65 9abd 3817 7e3d 2d46 d0bd 0f31 aebd
000002a0: f705 14bd 0f3f 043c 5e38 043d 2b86 b6bd
000002b0: e3f4 c0bc 24e2 63bc fae6 09bd 4b75 c43c
000002c0: 0922 af3c 5d36 21bd 382f bf3d 8ea3 12bd
000002d0: 7a86 94bd 9285 fabc 1b5c 863d 2c2b c7bd
000002e0: c446 1bbd 023e 1cbd f130 de3d b090 9cbd
000002f0: cbb1 18bc 2d23 ccbd 3199 db3c 279a 5dbd
00000300: 5417 ca3b 47af f23c 4404 ecbd f302 15bd
00000310: fc38 5a3c 1387 5abd dc72 0e3c 852b 2fbd
00000320: a720 9d3b 29fa c6bc 3aa2 57bc 4750 ef3d
00000330: a280 fdbc 76f3 efbc b9a8 fd3c 10f2 f9bc
00000340: 0479 b6bd 2362 2d3c 92ef a0bd ffd8 893c
00000350: a7ba 2dbe 6318 90bd f528 c739 42ce 6a3d
00000360: 0011 c03d 950b adba ab3e 073e 5e99 8d3c
00000370: 44b3 e7bd 6973 4a3d 8238 523d fa73 0bbe
00000380: 799c d63d 109a 463d 8fc9 9fbd 2707 05bd
00000390: fefa d1bd e669 e8bc c1d2 7fbd cf84 b6bc
000003a0: d5b3 a2bb 16d9 fcbd 97d7 8dbd fb64 02be
000003b0: fb09 8abc ee80 da3c 777e b6bd 41a0 4cbd
000003c0: 193d 13be 66de bfbb 8b7f d9bd 7af6 f3bd
000003d0: 2d56 743d fbc3 a2bb 2d2b 45bd 764d ad3d
000003e0: cd67 a7bd 59e5 92bd b780 e93c 45ac acbd
000003f0: 23a1 5a3d ac3c 7bbd 02aa f4bb fb97 88bc

lstm.weight_ih_l1 f4 [256, 64]
0.006775327 0.009168912 -0.025042411 0.06605079 -0.04220745 0.07759155 0.036407188 0.04815422
-0.03380787 0.008170782 0.08258522 -0.038212635 -0.059607387 0.024384832 -0.09460011 0.12212938
0.048802197 -0.10907347 -0.037257764 -0.07815429 0.07744768 0.07490167 0.07879307 0.05304842
-0.05747407 -0.02821054 0.009931082 -0.05323792 0.0081566665 -0.17128503 0.03496043 -0.15432446
0.014906319 0.05085048 -0.0056651733 -0.18085243 -0.2242179 0.11057691 0.11854791 -0.20433928
0.0177547 -0.007200568 0.052192234 0.12154454 -0.05484665 0.039109282 0.11696145 0.053389404
-0.035734203 -0.13544498 0.06706121 -0.12347546 0.16167496 0.022295717 -0.0517704 0.079986915
0.008426435 0.0022606289 -0.17576802 0.13776712 -0.07490991 0.07624983 -0.16205399 0.08454249
0.09015997 0.11016136 -0.08605259 0.036385674 0.097953655 -0.072904 -0.034944333 -0.12982495
-0.09936278 0.05675885 0.05395051 0.031398013 -0.096231595 0.061339006 0.024480132 -0.027521135
-0.138856 -0.016908972 0.018207228 0.03246861 0.08296157 -0.060167965 0.03978027 0.0065284185
0.08743121 0.047269028 -0.00038619433 0.10151544 0.0049213357 0.06564075 0.04582984 -0.0029201626
0.0624008 0.023010947 0.08375259 -0.073133916 -0.09683612 0.13661018 0.00988678 -0.09917781
-0.07634359 -0.0066236407 0.004815984 -0.07364275 -0.06594438 0.17223723 -0.10062662 0.12607309
-0.058717575 -0.05454766 -0.08883202 0.13042746 0.075282514 -0.026687492 -0.048853233 -0.002187718
-0.11630989 -0.02056929 -0.06267543 -0.00907553 -0.02330958 -0.028854446 -0.0050862976 0.043390553
-0.16624986 0.18349265 0.16505499 0.05461465 -0.061089586 -0.014363257 -0.07504851 -0.014932434
-0.06591802 0.17012691 -0.06336513 -0.016306529 -0.108591385 0.10586184 -0.07149103 0.08207439
0.14269072 0.015013421 -0.0050287764 0.048470836 -0.05456957 0.032452166 0.03406304 -0.02659891
-0.055212982 0.14302993 0.039034896 0.06997667 0.066085435 -0.17883456 0.036460936 -0.1780564
-0.017047023 -0.0236449 0.06387568 -0.09770135 -0.21472728 -0.06647725 0.07605068 0.01369738
0.0011048741 0.057738893 -0.050822124 0.10115513 0.13726832 0.10032981 0.06536091 -0.063042015
-0.0661613 -0.10851688 0.029316721 0.06474998 0.15119946 0.16594099 0.059528485 -0.017204138
0.07691582 -0.15132649 0.0421032 -0.059210833 0.03349965 0.17780805 -0.14079513 0.053498164
-0.008313656 -0.08371676 0.10806591 0.06808683 0.029514844 -0.14831913 0.05015486 0.034414556
-0.039559342 0.104748845 -0.011554435 0.090704665 -0.048051946 0.017967967 -0.10324392 0.0044024154
0.03136216 -0.016114429 -0.00585493 0.050856493 0.17937489 0.027740248 0.12007836 0.16564353
-0.025142457 -0.046030473 0.12419418 -0.015663331 -0.005591108 -0.0014043568 -0.0026642208 -0.077188775
0.12112947 0.077096015 -0.07212875 -0.07633843 -0.009117901 0.04667645 -0.086740606 0.015186559
-0.020340845 -0.06852011 0.0053121913 0.097878695 -0.011686468 -0.030455226 0.072141506 0.027550237
-0.0012035699 -0.08987661 0.016386984 -0.11978574 -0.03488223 0.007753217 -0.15459998 -0.07669867
0.07588852 -0.08973931 -0.10763 0.0056490675 0.05787275 0.14342824 -0.043039527 0.15877692
00000000: 9003 de3b 3439 163c be25 cdbc a345 873d
00000010: b8e1 2cbd 52e8 9e3d b41f 153d 5c3d 453d
00000020: 1f7a 0abd bede 053c 7122 a93d da84 1cbd
00000030: e026 74bd b3c2 c73c b4bd c1bd f81e fa3d
00000040: d0e4 473d e961 dfbd 999b 18bd 5b0f a0bd
00000050: e49c 9e3d 0c66 993d 435e a13d 4d49 593d
00000060: ee69 6bbd ca19 e7bc fab5 223c 0110 5abd
00000070: 8aa3 053c 5865 2fbe ab32 0f3d 3b07 1ebe
00000080: a239 743c 9848 503d eba2 b9bb 6131 39be
00000090: 6199 65be 2676 e23d 3fc9 f23d 513e 51be
000000a0: 4e72 913c bef2 ebbb 86c7 553d 58ec f83d
000000b0: e2a6 60bd 0e31 203d 7c89 ef3d d9ae 5a3d
000000c0: 075e 12bd 17b2 0abe 6357 893d b4e0 fcbd
000000d0: 1f8e 253e 82a5 b63c 330d 54bd 2ed0 a33d
000000e0: 080f 0a3c 0f27 143b 88fc 33be d312 0d3e
000000f0: 5e6a 99bd df28 9c3d 7bf1 25be 9d24 ad3d
00000100: caa5 b83d 479c e13d 573c b0bd 2509 153d
00000110: ed9b c83d b14e 95bd ca21 0fbd d5f0 04be
00000120: b77e cbbd f87b 683d 36fb 5c3d 349b 003d
00000130: 1215 c5bd 9c3e 7b3d 8f8a c83c 0174 e1bc
00000140: 4430 0ebe af84 8abc 5327 953c cefd 043d
00000150: c1e7 a93d af72 76bd a3f0 223d 58ec d53b
00000160: 220f b33d 2b9d 413d 207a cab9 54e7 cf3d
00000170: 2843 a13b a86e 863d 12b8 3b3d 3360 3fbb
00000180: fb97 7f3d 7481 bc3c 7a86 ab3d 3cc7 95bd
00000190: 0452 c6bd 8ae3 0b3e 29fc 213c bc1d cbbd
000001a0: 075a 9cbd 200b d9bb 67cf 9d3b 03d2 96bd
000001b0: d90d 87bd f55e 303e 5415 cebd 4e19 013e
000001c0: d781 70bd 5e6d 5fbd 90ed b5bd c78e 053e
000001d0: b82d 9a3d ba9f dabc 541a 48bd d15f 0fbb
000001e0: e133 eebd ed80 a8bc fa5b 80bd 88b1 14bc
000001f0: bbf3 bebc 2960 ecbc f5aa a6bb 4bba 313d
00000200: 673d 2abe 7fe5 3b3e 2d04 293e 9cb3 5f3d
00000210: 1339 7abd de53 6bbc 09b3 99bd 2ba7 74bc
00000220: 0700 87bd c035 2e3e 94c5 81bd 4595 85bc
00000230: 2965 debd 18ce d83d e469 92bd 9e16 a83d
00000240: 841d 123e dafa 753c 6fc8 a4bb 5b89 463d
00000250: 5784 5fbd 90ec 043d b085 0b3d f5e5 d9bc
00000260: 0227 62bd 7076 123e 0ee3 1f3d ee4f 8f3d
00000270: cd57 873d 6820 37be 1058 153d 6b54 36be
00000280: 33a6 8bbc f3b2 c1bc 41d1 823d a517 c8bd
00000290: 78e1 5bbe 3925 88bd 75c0 9b3d fa6a 603c
000002a0: 6cd1 903a 9e7f 6c3d dc2a 50bd 6c2a cf3d
000002b0: 1190 0c3e b779 cd3d f1db 853d 2c1c 81bd
000002c0: 937f 87bd 193e debd 9f29 f03c a39b 843d
000002d0: 08d4 1a3e 6fec 293e 24d4 733d b1ef 8cbc
000002e0: 0b86 9d3d 55f5 1abe 6874 2c3d 0f87 72bd
000002f0: ee36 093d 5013 363e 992c 10be e420 5b3d
00000300: 0036 08bc b173 abbd a951 dd3d 1c71 8b3d
00000310: 1dc9 f13c f8e0 17be 2f6f 4d3d 47f6 0c3d
00000320: fa08 22bd 9086 d63d d04e 3dbc 5ec3 b93d
00000330: 1ed2 44bd 8f31 933c 8c71 d3bd 2342 903b
00000340: 9c75 003d 6802 84bc b6da bfbb e64e 503d
00000350: 0dae 373e 843f e33c a5eb f53d 759e 293e
00000360: 8ef7 cdbc 738a 3cbd 8559 fe3d 6350 80bc
00000370: 9d35 b7bb 6512 b8ba 359a 2ebb 2615 9ebd
00000380: ba12 f83d 84e4 9d3d 3db8 93bd 5357 9cbd
00000390: 4063 15bc ce2f 3f3d 0fa5 b1bd 0cd1 783c
000003a0: d8a1 a6bc 4554 8cbd e411 ae3b a074 c83d
000003b0: 9978 3fbc 3d7d f9bc edbe 933d 09b1 e13c
000003c0: 1bc1 9dba 3a11 b8bd ff3d 863c 3a52 f5bd
000003d0: abe0 0ebd b30e fe3b 754f 1ebe 3114 9dbd
000003e0: 716b 9b3d 3ec9 b7bd 1e6d dcbd d01b b93b
000003f0: fa0b 6d3d dade 123e 374a 30bd 6b96 223e

lstm.weight_hh_l1 f4 [256, 64]
0.06288718 -0.10022889 -0.019307723 -0.11034709 0.14573285 -0.020455657 -0.02695555 -0.026594443
0.007925097 0.060500316 -0.050316308 0.058786325 -0.044038232 0.018599084 0.10502245 -0.14328466
-0.08251093 -0.10639469 -0.11148152 -0.08026285 -0.08376763 -0.087778635 0.022682013 -0.10409915
-0.10592457 0.008265585 -0.10373647 -0.05196276 0.15481511 0.013791093 -0.12922235 -0.17936379
-0.0048030796 0.08522549 0.032673523 0.026787179 -0.011249045 -0.03836596 -0.1830084 -0.09375369
-0.07340395 -0.18268086 -0.17132561 -0.06622566 0.09268273 0.07075803 -0.04289899 -0.13195163
-0.09064605 0.07229706 -0.015513456 -0.064571165 0.08563256 0.07176432 0.14391504 -0.059573438
-0.10989604 0.07244468 0.03759733 -0.15772088 -0.023544535 0.0433902 0.18581478 -0.029286936
-0.05150923 0.03860195 -0.00038564438 -0.12970962 0.07347133 0.095812015 -0.028007783 -0.01389854
0.10863326 -0.052488185 -0.047752317 0.055477083 0.09990616 -0.07297722 -0.11846979 0.060908724
-0.017495595 -0.045805737 0.09570003 0.10286199 -0.010286674 0.034663025 0.061823703 0.06343878
-0.053509474 0.103033274 0.13695139 0.03997251 -0.0671356 0.014566415 -0.070679024 0.039168533
-0.043713994 -0.06258799 0.056183696 0.07429262 -0.117289975 -0.0063453396 -0.084953666 -0.010326712
0.025950981 -0.04288046 0.105696455 -0.09160423 0.04864387 0.10470585 0.11057937 -0.037367247
0.13019858 -0.091031544 0.009707349 -0.05647077 0.026891738 -0.03117681 -0.05750906 -0.050119393
0.021852367 -0.08233596 0.051669404 0.12914902 0.09850793 0.072715975 0.043785043 -0.073868275
0.013907745 0.02419295 -0.15404212 -0.028072596 0.016199809 -0.02855639 -0.017486332 0.09673384
0.0071871984 -0.029760474 -0.13592005 -0.0025093737 0.06307175 0.0733103 -0.038919725 0.045727875
0.060712714 -0.036658265 -0.11883449 -0.00029275822 0.12308868 -0.0874608 -0.05272936 -0.17144346
0.023766693 0.05402635 -0.09619465 0.18903205 0.10419694 -0.074197136 -0.0009948574 -0.026496354
-0.13027735 0.13094606 0.02405301 0.050622664 0.010799327 -0.119609885 -0.15706697 -0.16628794
-0.099227116 0.008728513 -0.07384265 -0.1535913 0.04353209 0.17108485 -0.12544556 -0.15345359
-0.11992917 -0.07826353 0.03210749 -0.19978397 0.15546733 0.03462166 0.13072938 -0.029708268
-0.14371541 0.07828632 0.016970193 0.013707347 0.06666095 0.07874306 -0.020774905 -0.055749804
-0.04463158 -0.07996141 -0.018769601 -0.064502805 0.03733722 -0.077087104 0.15443741 0.04073696
0.07294758 -0.0732694 -0.08160466 -0.10730733 0.12780681 0.025008148 0.055733345 -0.029547265
-0.064696014 0.09910745 0.085692875 0.0210515 -0.085558474 0.1146147 -0.026039418 -0.044731356
0.023138689 -0.120782636 -0.020058295 0.06427308 -0.040186454 -0.066097826 0.06349329 -0.030479621
-0.08461715 0.1418049 0.08142369 -0.06032743 -0.118286446 0.00032360014 -0.018936798 0.035402145
-0.05363293 0.011324776 0.0011625133 0.0014794016 0.02950401 0.04856658 0.005460334 -0.079018846
0.019592557 -0.16257435 0.02474737 0.088573836 -0.04928785 0.043874588 0.039823286 0.08590352
0.04876918 0.081721835 -0.17481184 -0.015680367 0.06215676 0.09631135 -0.07072368 0.0031349729
00000000: feca 803d ce44 cdbd 3b2b 9ebc a8fd e1bd
00000010: fe3a 153e 9f92 a7bc e3d1 dcbc 97dc d9bc
00000020: 44d8 013c 2ecf 773d 7918 4ebd eec9 703d
00000030: 6f61 34bd 1b5d 983c 0316 d73d 37b9 12be
00000040: 7efb a8bd 76e5 d9bd 6c50 e4bd d960 a4bd
00000050: 5d8e abbd 49c5 b3bd a1cf b93c ef31 d5bd
00000060: fbee d8bd 606c 073c c973 d4bd e7d6 54bd
00000070: da87 1e3e 09f4 613c dd52 04be 24ab 37be
00000080: 2763 9dbb b48a ae3d acd4 053d c970 db3c
00000090: ea4d 38bc a025 1dbd 8e66 3bbe ef01 c0bd
000000a0: cf54 96bd b110 3bbe fb6f 2fbe 52a1 87bd
000000b0: 71d0 bd3d 96e9 903d dab6 2fbd 541e 07be
000000c0: a3a4 b9bd 7b10 943d 272c 7ebc e33d 84bd
000000d0: 2060 af3d 2cf9 923d 775e 133e 4703 74bd
000000e0: 2d11 e1bd e05d 943d a8ff 193d 9581 21be
000000f0: 78e0 c0bc ecb9 313d 3b46 3e3e 28eb efbc
00000100: 58fb 52bd 141d 1e3d 5030 cab9 99d2 04be
00000110: 2378 963d 1739 c43d 9470 e5bc b4b6 63bc
00000120: 1d7b de3d dafd 56bd ef97 43bd f03b 633d
00000130: 9a9b cc3d 1575 95bd 4aa0 f2bd 6d7b 793d
00000140: ec52 8fbc cc9e 3bbd 61fe c33d 4fa9 d23d
00000150: 7089 28bc d1fa 0d3d da3a 7d3d 31ec 813d
00000160: c02c 5bbd 1c03 d33d fc3c 0c3e 37ba 233d
00000170: 647e 89bd f9a7 6e3c 2ac0 90bd 2f6f 203d
00000180: 720d 33bd 222e 80bd e020 663d bb26 983d
00000190: ba35 f0bd 91ec cfbb 30fc adbd 5f31 29bc
000001a0: 2797 d43c 6ca3 2fbd 6277 d83d 009b bbbd
000001b0: cb3e 473d 0570 d63d 7077 e23d 660e 19bd
000001c0: c752 053e bf6e babd 930b 1f3c e54d 67bd
000001d0: 104c dc3c 8266 ffbc 9f8e 6bbd fe49 4dbd
000001e0: bc03 b33c c19f a8bd 4ca3 533d a43f 043e
000001f0: 87be c93d 1dec 943d f257 333d 4048 97bd
00000200: 4fdd 633c 4b30 c63c 38bd 1dbe 80f8 e5bc
00000210: 76b5 843c 17ef e9bc 7f3f 8fbc 641c c63d
00000220: 9782 eb3b 3dcc f3bc a02e 0bbe 4e74 24bb
00000230: c32b 813d b623 963d 4a6a 1fbd 274d 3b3d
00000240: e5ad 783d fa26 16bd 7f5f f3bd 587d 99b9
00000250: eb15 fc3d a61e b3bd befa 57bd e08e 2fbe
00000260: 5eb2 c23c bc4a 5d3d b301 c5bd 9e91 413e
00000270: 3565 d53d abf4 97bd e065 82ba e20e d9bc
00000280: 6d67 05be b916 063e d10a c53c b659 4f3d
00000290: a9ef 303c 07f6 f4bd 2ad6 20be 6347 2abe
000002a0: 9637 cbbd 0902 0f3c d13a 97bd 0a47 1dbe
000002b0: b44e 323d de30 2f3e cd74 00be f022 1dbe
000002c0: 6d9d f5bd a148 a0bd 2583 033d 2b94 4cbe
000002d0: d432 1f3e 71cf 0d3d ecdd 053e c15e f3bc
000002e0: 222a 13be 9454 a03d 1305 8b3c c894 603c
000002f0: 8985 883d 0b44 a13d 2230 aabc e859 64bd
00000300: 9bcf 36bd cfc2 a3bd b5c2 99bc 0c1a 84bd
00000310: eaee 183d d8df 9dbd d724 1e3e ccdb 263d
00000320: 8a65 953d 440e 96bd 5820 a7bd f2c3 dbbd
00000330: cadf 023e e3dd cc3c a648 643d 1b0d f2bc
00000340: 587f 84bd d9f8 ca3d bf7f af3d 3274 ac3c
00000350: 4839 afbd 1dbb ea3d 9e50 d5bc 3a38 37bd
00000360: 598d bd3c e35c f7bd 4b51 a4bc 9ba1 833d
00000370: 8d9a 24bd 4c5e 87bd c508 823d 66b0 f9bc
00000380: c24b adbd 4e35 113e 77c1 a63d e519 77bd
00000390: 2a40 f2bd e0a8 a939 5821 9bbc d701 113d
000003a0: 34ae 5bbd 8e8b 393c 795f 983a 7be8 c13a
000003b0: 65b2 f13c c0ed 463d 9aec b23b a2d4 a1bd
000003c0: 9280 a03c e479 26be ffba ca3c 3366 b53d
000003d0: 0ee2 49bd d7b5 333d be1d 233d 2fee af3d
000003e0: 31c2 473d c75d a73d e001 33be 1d74 80bc
000003f0: 1698 7e3d e33e c53d 94d7 90bd 1e74 4d3b

lstm.bias_ih_l1 f4 [256]
0.04313957 0.1520763 -0.1030966 0.07357028 0.046474908 0.049257748 -0.0022966287 -0.07646502
0.02187908 -0.051654994 -0.040935848 0.023335928 0.06585302 -0.066114135 -0.0020100398 -0.10357912
0.026866587 -0.14700116 -0.0131387 -0.10957137 0.022522582 -0.007805434 -0.018886862 0.028391922
0.017916104 -0.11145472 -0.019698447 -0.06746735 0.12244856 -0.06016388 -0.037558917 -0.058827166
0.08739165 0.002399496 -0.09905123 0.0056894715 -0.083415784 -0.16233279 -0.09987182 -0.101321846
-0.16926284 0.089074105 -0.10472701 -0.08026545 -0.07398754 -0.04642985 -0.09053847 0.021510666
0.061857432 -0.12692197 -0.047668178 0.081743486 -0.16988593 0.012734332 0.084018916 -0.16292572
-0.17914811 -0.010618328 -0.02247832 0.10335212 -0.077076845 0.034391865 0.13195254 0.10522415
-0.06366459 0.09316916 0.064445354 -0.14045334 -0.07195614 -0.05087743 0.085270174 0.071506724
0.05425101 -0.015661184 0.014537024 0.07803003 0.085585974 -0.153485 0.0050059897 0.024523688
0.013007279 -0.13588324 -0.035132118 0.023675652 -0.067450434 -0.02670159 -0.09499895 -0.08635123
-0.101237915 -0.13752083 0.06064301 -0.029103585 0.03602662 -0.029559184 0.007507488 0.11911709
-0.015817422 -0.03580877 0.04054011 0.06890492 0.11778869 -0.15913752 0.04055249 0.045735117
-0.080428086 -0.10604965 0.010010772 0.0067893965 0.018727787 0.0908213 -0.13816954 -0.05723611
0.15109481 -0.17445825 -0.06869839 -0.07645564 -0.03698581 -0.117571235 -0.123249486 -0.10306211
0.05851282 0.06571371 -0.00509343 -0.017659316 -0.04093978 0.075569995 0.13187514 0.08905448
-0.024358766 0.13422696 0.026055092 0.096240014 0.07007508 0.05834027 -0.07502641 0.058476005
-0.006967706 -0.06458118 0.1619016 0.114699475 -0.032097224 -0.028651854 0.011272055 0.099861495
0.07304924 -0.054728787 -0.02273663 0.08919 0.05587016 -0.047035906 0.05782833 0.06925806
0.02670455 0.07144983 0.0660821 -0.13483346 -0.10318494 -0.015872782 0.110813424 0.0848077
0.1308823 -0.07630248 -0.10712874 -0.08131631 0.08501783 0.015621379 0.05252126 0.13489495
0.051529147 0.02263813 0.13566215 0.0145954285 -0.058886886 -0.109019734 0.061509505 0.10982528
0.12195353 -0.017771026 -0.058933817 0.013292336 -0.02888834 0.017934728 -0.11418128 0.0679492
0.009509628 -0.13783799 -0.010858725 0.02985202 -0.1399521 -0.0044834735 0.04182035 0.088146105
-0.04764951 0.021116445 0.00667697 -0.03276566 -0.1330619 0.055720076 -0.0222598 0.032341164
-0.018239157 -0.09009387 0.14188735 -0.05955017 0.052638236 -0.025461808 -0.017717613 0.12351469
-0.15398353 -0.16298522 -0.0024076812 0.03336361 -0.17416781 -0.098398015 -0.050124988 0.09474282
-0.022305256 -0.05288068 -0.11798625 -0.078522034 -0.080803014 -0.12631388 0.07101182 0.0577419
-0.070412144 0.09152148 0.1388999 -0.10433146 -0.0855861 0.02120966 -0.041845918 0.14265685
0.026521584 -0.025264435 0.121234916 0.10061601 0.0385716 -0.052603003 0.023876049 0.0074275364
0.036977675 -0.07574105 -0.12768565 -0.009528794 0.01231903 -0.19696273 -0.062829055 0.056883764
-0.066965826 0.13921447 -0.013002174 0.026800329 -0.10511349 0.015201975 0.11098168 -0.019184044
00000000: 1eb3 303d e4b9 1b3e 4f24 d3bd 04ac 963d
00000010: 795c 3e3d 7ec2 493d 0983 16bb b199 9cbd
00000020: c23b b33c 3094 53bd 59ac 27bd fd2a bf3c
00000030: f3dd 863d d966 87bd dfba 03bb 4a21 d4bd
00000040: 5117 dc3c 7987 16be b443 57bc f466 e0bd
00000050: 4781 b83c bac4 ffbb 9fb8 9abc 2d96 e83c
00000060: cbc4 923c 5f42 e4bd a35e a1bc 522c 8abd
00000070: 50c6 fa3d 676e 76bd 61d7 19bd c1f4 70bd
00000080: 65fa b23d dd40 1d3b 5fdb cabd bf6e ba3b
00000090: e5d5 aabd 913a 26be 9989 ccbd d481 cfbd
000000a0: 3d53 2dbe 7c6c b63d 1d7b d6bd 3662 a4bd
000000b0: c886 97bd 3a2d 3ebd 3c6c b9bd 2337 b03c
000000c0: 385e 7d3d d5f7 01be b53f 43bd 2169 a73d
000000d0: 94f6 2dbe a9a3 503c 1c12 ac3d 00d6 26be
000000e0: 9a72 37be 7ff8 2dbc 7424 b8bc 47aa d33d
000000f0: 77da 9dbd 7cde 0c3d 911e 073e c27f d73d
00000100: 9562 82bd 79cf be3d edfb 833d 00d3 0fbe
00000110: be5d 93bd da64 50bd 21a2 ae3d 1e72 923d
00000120: 4f36 5e3d e24b 80bc b32c 6e3c 35ce 9f3d
00000130: b347 af3d 2c2b 1dbe 4909 a43b e7e5 c83c
00000140: 7b1c 553c fa24 0bbe b2e6 0fbd 71f3 c13c
00000150: 7423 8abd 4bbd dabc cf8e c2bd ead8 b0bd
00000160: d355 cfbd 43d2 0cbe ce64 783d a46a eebc
00000170: a690 133d 1a26 f2bc 6001 f63b a9f3 f33d
00000180: 8a93 81bc 38ac 12bd 630d 263d 061e 8d3d
00000190: 323b f13d f2f4 22be 5e1a 263d bf54 3b3d
000001a0: 7bb7 a4bd 8f30 d9bd 3904 243c 9679 de3b
000001b0: 046b 993c 8500 ba3d 517c 0dbe 6970 6abd
000001c0: 99b8 1a3e 2fa5 32be beb1 8cbd c694 9cbd
000001d0: 6f7e 17bd 30c9 f0bd 3a6a fcbd 3a12 d3bd
000001e0: 24ab 6f3d e994 863d cae6 a6bb 45aa 90bc
000001f0: 79b0 27bd 71c4 9a3d 470a 073e 3262 b63d
00000200: 098c c7bc cb72 093e 7d71 d53c 7c19 c53d
00000210: 8683 8f3d 35f6 6e3d 72a7 99bd 8984 6f3d
00000220: 5b51 e4bb 2343 84bd 88c9 253e 8fe7 ea3d
00000230: 6178 03bd 4bb7 eabc 6dae 383c 2f84 cc3d
00000240: d79a 953d 4b2b 60bd 2b42 babc 3fa9 b63d
00000250: 1cd8 643d b9a8 40bd 66dd 6c3d 2bd7 8d3d
00000260: 80c3 da3c 4a54 923d 0d56 873d c811 0abe
00000270: a052 d3bd a307 82bc 26f2 e23d a9af ad3d
00000280: 0206 063e 7a44 9cbd 5066 dbbd 2a89 a6bd
00000290: d41d ae3d d0f0 7f3c 8820 573d e721 0a3e
000002a0: 3a10 533d 9973 b93c 05eb 0a3e aa21 6f3c
000002b0: 6033 71bd bd45 dfbd 64f1 7b3d 14ec e03d
000002c0: c6c2 f93d 8b94 91bc 9664 71bd 19c8 593c
000002d0: 3da7 ecbc daeb 923c e0d7 e9bd f328 8b3d
000002e0: 45ce 1b3c 6725 0dbe cbe8 31bc 398c f43c
000002f0: 9a4f 0fbe 1aea 92bb d14b 2b3d f285 b43d
00000300: 222c 43bd 65fc ac3c 7cca da3b 4935 06bd
00000310: 6141 08be bc3a 643d 2f5a b6bc 2b78 043d
00000320: 496a 95bc 2383 b8bd eb4a 113e e1ea 73bd
00000330: 319b 573d 4895 d0bc 8724 91bc 45f5 fc3d
00000340: dcad 1dbe 99e5 26be 30ca 1dbb 48a8 083d
00000350: 0c59 32be e684 c9bd dc4f 4dbd 8608 c23d
00000360: 83b9 b6bc 6999 58bd c6a2 f1bd 29d0 a0bd
00000370: 0d7c a5bd 6d58 01be a56e 913d c582 6c3d
00000380: 3e34 90bd 9d6f bb3d c63b 0e3e bcab d5bd
00000390: c447 afbd e2bf ad3c a066 2bbd a314 123e
000003a0: cb43 d93c 5cf7 cebc 034a f83d c40f ce3d
000003b0: 41fd 1d3d 3f76 57bd b497 c33c b162 f33b
000003c0: e775 173d 201e 9bbd 07c0 02be a91e 1cbc
000003d0: c2d5 493c 99b0 49be 85ac 80bd f3fe 683d
000003e0: 6125 89bd 3d8e 0e3e 1207 55bc 5d8c db3c
000003f0: be45 d7bd b411 793c 5d4a e33d db27 9dbc
